model/cifar10_cnn.pth (torch_old, 354092 bytes, 10 tensors)

weight f4 [6, 3, 5, 5]
000000 19 10 d9 3d 61 1e 8b 3d c2 c8 93 bd b7 71 5a bd
       0.105987735 0.06792904 -0.07216026 -0.053331103
000010 1b e1 eb 3d 59 73 3a 3e 9d 8b 64 3d 24 1a c7 3d
       0.11517545 0.18208064 0.055797208 0.09721783
000020 9c 91 02 bd fb b3 24 3e 2d 03 46 bd 95 e6 11 3c
       -0.031877145 0.16084282 -0.048342872 0.008905073
000030 02 e6 5a be 08 3a 5d be 2c 98 16 3e d9 bb 44 3d
       -0.21376804 -0.21604168 0.14706486 0.048030708
000040 21 b9 23 bd 21 50 97 be 3b 46 e5 be bc 7c 5d be
       -0.039971475 -0.2955332 -0.44780144 -0.21629614
000050 60 43 71 3e 2c 00 c7 3e 24 43 a2 be a2 4d 67 bd
       0.23560858 0.3886732 -0.3169185 -0.05647052
000060 f8 da 3a be 5e 60 e5 3d 11 01 3b 3d a7 b9 ab bd
       -0.18247592 0.11200021 0.045655314 -0.0838502
000070 5a cf 6f bb 2a 51 9b 3d 8b 17 b2 3d 7d ec 81 3d
       -0.0036592097 0.0758384 0.08695897 0.06343935
000080 c6 49 0a bd a2 57 f8 bd 6c 3c 74 be d6 6c 55 be
       -0.033761762 -0.1212609 -0.23851174 -0.20842299
000090 e6 90 ad bd 96 95 30 3e bb 7f 7d 3d 79 60 1f 3e
       -0.08474903 0.17244563 0.06188939 0.15564145
0000a0 c2 75 04 bd 99 5a 6d bd 8f 8b 15 3e 51 33 6a 3d
       -0.032338865 -0.05794773 0.14604019 0.057177845
0000b0 c4 b1 d1 3d 60 f2 a8 be f2 a4 8c 3d 1b aa 39 bd
       0.10238984 -0.32997417 0.06867398 -0.04532824
0000c0 5a af e7 3d 91 6d 1c be a4 be d2 bd 31 9c f9 bc
       0.113127425 -0.15276171 -0.10290268 -0.030469986
0000d0 55 9e 26 3a f4 05 de bd 1b 7d 3c be 99 f6 40 be
       0.0006355991 -0.10840979 -0.18407099 -0.1884407
0000e0 88 d7 be bc da 51 92 3d 3d b4 aa bd af 9d b3 be
       -0.023296133 0.07144518 -0.08335159 -0.3508124
0000f0 af 64 8d 3d cd b2 8a 3e 2b 96 ab 3e 59 8d ac 3e
       0.069039695 0.2708954 0.33513007 0.3370159
000100 f5 ee 85 3e b5 5f 95 bd 4b 5c f1 3d 85 e1 8a 3e
       0.26158872 -0.07293645 0.117851816 0.27125183
000110 e5 66 86 3e 6b d4 69 3e 71 46 d4 be 89 ef be 3d
       0.26250377 0.22834937 -0.41459993 0.093230315
000120 57 72 25 3e fa 9d de 3e ef c8 28 bc 74 76 64 3d
       0.16156898 0.43479902 -0.010301813 0.05577703
000130 cc 6b 8c 3d 46 7e 84 3d ad fb 67 3e 94 0e a1 3c
       0.06856498 0.06469397 0.226546 0.019660272
000140 81 61 94 3c 4c 51 b0 3e 57 a0 ed 3d 40 df a6 be
       0.0181129 0.34437025 0.11602848 -0.325922
000150 aa 39 30 bd 92 47 1c 3e 53 36 99 3e 64 91 ca bd
       -0.043023743 0.15261677 0.2992426 -0.09891012
000160 b8 f5 2f be 80 09 e1 bd ec a1 5f 3d d7 dc b7 3d
       -0.17183578 -0.1098814 0.05459778 0.08977669
000170 13 b4 1b bd 09 0b 59 3d 9d 33 1d be 55 bf 1b be
       -0.03801353 0.05298904 -0.1535172 -0.15209706
000180 73 94 07 be 3c 6c 43 3d 77 98 95 3d 2b 42 2e 3d
       -0.13240223 0.047710642 0.07304471 0.04254357
000190 74 46 ad 3d 11 b0 5c 3d b6 72 8b be a0 28 a5 be
       0.084607035 0.053878848 -0.27235955 -0.32257557
0001a0 ee e0 4f be 69 ec 3c 3e b8 81 90 3d 74 2b aa be
       -0.20300648 0.18449558 0.07055992 -0.33236277
0001b0 1b f0 ed be f3 4f 75 bc 95 bb 35 3e 52 51 8f 3e
       -0.46472248 -0.014972675 0.17747338 0.2799173
0001c0 b4 e9 aa be e8 ea 7f be 80 c7 0a 3e e2 a4 47 bc
       -0.33381426 -0.24991953 0.13552666 -0.012185307
0001d0 dc db 0d bc 4f 51 84 be 14 22 d1 bd b0 63 da 3d
       -0.008658376 -0.25843284 -0.10211578 0.10663545
0001e0 5a 89 ec 3d bd 96 87 bd ea 0f 14 be ef 13 d8 3d
       0.11549635 -0.06620548 -0.14459196 0.10550677
0001f0 47 ce b8 3d 63 35 1f 3c 53 ba 07 3e 57 9e c4 3c
       0.09023719 0.009717318 0.13254671 0.024001284
000200 a0 97 50 bd 74 29 53 3d d4 be 07 3e 08 24 58 3e
       -0.05092585 0.051553205 0.13256389 0.21107495
000210 24 c7 f5 bd 57 b9 82 be 48 dc 35 3e b1 2e 06 3e
       -0.12000874 -0.25532028 0.17759812 0.13103749
000220 65 d8 24 3e c1 f9 1e be a8 47 87 be 18 e3 bd 3d
       0.16098173 -0.15524961 -0.26421857 0.0927183
000230 48 90 3c 3e 7c c4 1a 3e 7e a4 c4 bb f3 da 89 bd
       0.18414414 0.15114015 -0.0060010543 -0.067312144
000240 70 27 9e bd d4 e0 ba bd b9 45 93 3c 21 76 1d 3d
       -0.07722366 -0.09124914 0.017977582 0.038442735
000250 fd 38 c4 3c 88 7b 11 3d 2a e0 ff 3d 47 0c d8 3c
       0.023952955 0.0355182 0.12493928 0.026373042
000260 c0 61 5e 3e 27 54 1d 3e 2b 34 64 3e b4 0e 6b bd
       0.21716976 0.15364133 0.22285526 -0.05738707
000270 6d 6b d7 3d 74 7c 2c 3e 22 2a d9 3e ba f8 ce 3d
       0.10518537 0.1684435 0.42414957 0.101060346
000280 b7 b8 20 bd ab bf c4 be 81 7f 4f bf da 72 f0 be
       -0.039238658 -0.3842748 -0.8105393 -0.46962625
000290 7d 29 d4 3c 3a 20 01 bd bb d5 9a 3d 9e f0 48 be
       0.02589869 -0.031524874 0.07560297 -0.19623038
0002a0 8d 5c 06 bf 30 c2 fd bc 2a 39 05 3d 8b bb 01 3e
       -0.5248497 -0.030976385 0.03252522 0.12669198
0002b0 c4 78 06 3f 71 ff 8d 3e 2c 38 b5 bd f3 01 35 bd
       0.52528024 0.2773395 -0.088486046 -0.044191312
0002c0 68 59 3d be 0c 4f b4 bd 61 c9 69 bd 2a 56 a1 be
       -0.18491137 -0.088041395 -0.057076816 -0.3151105
0002d0 cf 3a 27 bd a8 62 cc 3d e9 58 f2 3e 30 fb 10 3f
       -0.04082757 0.09979755 0.47333458 0.5663328
0002e0 e4 94 31 3c d9 81 de 3b 87 83 6d be f7 65 00 bf
       0.010838721 0.0067903814 -0.23194705 -0.50155586
0002f0 ac d8 a3 be 10 3f d4 bc 80 6c 0d 3e 3c 2d c5 3e
       -0.32001245 -0.025908977 0.1381092 0.38511074
000300 c5 d5 00 be 0b 0c 8b be 28 e4 05 be a4 18 ee bd
       -0.12581547 -0.27157626 -0.13075316 -0.116257936
000310 ca f6 c0 3d a1 b5 e4 3e 8f 52 25 3e 6a 8f ff bd
       0.09422071 0.44669822 0.16144775 -0.12478526
000320 9e f1 a4 3d 22 27 ee bc 0b 69 43 be f8 e5 8f be
       0.08053897 -0.029071394 -0.1908304 -0.2810514
000330 ce 60 ce bd 0a 18 b2 3d db 9c b3 3d 04 a1 c7 3e
       -0.10077058 0.08695991 0.08770152 0.38990033
000340 90 af cb 3e be 2d 7f bb 37 3d 81 bd 7e ee 21 be
       0.3978238 -0.0038937177 -0.06310504 -0.15813634
000350 ca 77 91 be ac a3 ce bd 2a 59 8d 3d 74 f3 0c bc
       -0.28411704 -0.10089812 0.06901772 -0.008602966
000360 a9 57 6b 3d 21 35 0a be 99 6d 9f bd 49 8b dd 3d
       0.057456646 -0.1349683 -0.07784576 0.10817582
000370 6d 39 47 bd cc 35 39 3d 78 5d 0a 3e df 32 e7 3d
       -0.04863875 0.04521732 0.13512218 0.11289
000380 0c a2 c9 bc 0c 13 08 3d 0c 0d bf bd 21 74 87 be
       -0.024613403 0.03322129 -0.0932866 -0.26455787
000390 6b a9 e6 bd 10 2c 26 3d 10 f1 e0 3d eb 05 0e bf
       -0.11262783 0.040569365 0.10983479 -0.5547778
0003a0 fa 79 f0 bd 5e ce 6b 3e 74 23 4a 3e 5d 0b 85 be
       -0.11742015 0.23027942 0.19740087 -0.25985232
0003b0 89 34 58 bd ee 28 35 3f e3 47 63 3e 62 80 a0 3c
       -0.052784476 0.7076558 0.22195391 0.019592468
0003c0 bc 5f 1f 3e b4 13 e8 3e 99 77 32 3e 16 00 7f be
       0.15563864 0.45327532 0.17428435 -0.24902377
0003d0 d6 26 9c bd 1b e7 a5 bb 7f a6 f3 3d 7b 8f 6e be
       -0.07624595 -0.0050629503 0.11896991 -0.23296921
0003e0 99 2f 10 be 18 48 5c be 81 be 96 3e a0 59 c0 3d
       -0.14080657 -0.21511877 0.29442218 0.093920946
0003f0 2b 6b 81 bc aa 53 bf 3c 57 70 e6 bc 8d 87 1d 3e
       -0.015798172 0.023355324 -0.02812974 0.1538374

bias f4 [6]
000000 06 43 17 3e 19 70 e7 bd 4e 0d 31 be c7 0c 18 be
       0.14771661 -0.11300678 -0.17290232 -0.14848624
000010 c9 40 7f bd b7 29 ab 3d
       -0.062317643 0.08357566

weight f4 [16, 6, 5, 5]
000000 92 e2 70 3e 33 ec 17 be ae 8d d2 be cb 50 de bd
       0.2352393 -0.14836197 -0.41123718 -0.10855254
000010 a0 e6 1a be d1 7a 74 3e e5 e1 a3 3d df 53 5c be
       -0.15127039 0.23874976 0.0800207 -0.2151637
000020 9a f1 4e bc cf 8d 17 3e e3 f5 2e 3e c5 71 a1 3c
       -0.0126308445 0.1480019 0.17085986 0.01970757
000030 0a 79 ba bd fe 7b a1 bd d5 13 0d bd 62 84 2d 3f
       -0.091051176 -0.07884978 -0.03444274 0.67780125
000040 75 88 c1 3b f7 a6 67 be 2c 3e 5b bc ca 8c 37 3d
       0.0059061595 -0.22622286 -0.013381522 0.044812
000050 ad e7 93 3e 40 0a 97 3d ff f2 66 be 89 07 b9 be
       0.28887692 0.07375002 -0.22553633 -0.3613856
000060 ec d4 ab be cd 0e 11 3e 63 40 bc bd f4 a4 86 3c
       -0.33560884 0.14165802 -0.09191968 0.016436078
000070 2b e6 0f bd 8c 1f f6 bd 40 78 18 ba 3c e5 66 bd
       -0.035131615 -0.12017736 -0.00058162585 -0.05637096
000080 55 49 15 3e 60 86 8e bd e4 2b 97 bd 67 aa 44 be
       0.14578755 -0.06959224 -0.07381418 -0.19205628
000090 d3 0f 35 be 6d 10 38 3e 33 9b 75 bc 76 db 3a bc
       -0.17681818 0.17975016 -0.014990616 -0.011404863
0000a0 28 86 ea bd bb 92 01 bf de 75 c9 bd 7f c0 96 3d
       -0.114513695 -0.5061452 -0.098369345 0.073609345
0000b0 63 ac 13 bd 78 76 b8 3d d1 18 46 be f2 58 81 be
       -0.036053073 0.09006971 -0.19345404 -0.25263172
0000c0 8b ef 26 3e 37 a3 8f 3e 27 07 a1 3e b9 f5 08 be
       0.16302316 0.2805421 0.3145077 -0.13374986
0000d0 df b2 ff bd d4 31 87 3e 5c 10 f6 3d 00 ca 51 bc
       -0.12485289 0.26405203 0.12014839 -0.012804508
0000e0 60 ec 2f bc e6 b6 aa be 39 52 75 3d 95 89 5e 3d
       -0.010737509 -0.33342665 0.059892867 0.054330427
0000f0 0a cc 96 be 07 1c 85 be e1 f8 3f 3c fe f6 33 be
       -0.29452544 -0.25997946 0.011717052 -0.17574689
000100 b8 92 a7 bd 74 cf 15 be c5 13 e0 bd 25 eb 9e be
       -0.08182281 -0.14629918 -0.10941271 -0.31038776
000110 21 d7 93 be 52 ca 3c bd af bb b6 3d 07 c2 91 3d
       -0.28875068 -0.046091385 0.089225166 0.07117086
000120 ac db 34 3e 4a ba 94 bc ec d3 40 3d 11 09 4d be
       0.17661923 -0.018155236 0.047077104 -0.2002299
000130 83 39 2d bf d4 a6 80 be ed eb f4 3c 4e 9a 29 be
       -0.6766588 -0.2512728 0.029897654 -0.16562769
000140 3d b5 6e be 18 9a 3b bf 51 b5 25 bf ba 09 0c bf
       -0.23311324 -0.73282003 -0.6472979 -0.5470234
000150 84 65 4c be 71 22 52 be 59 59 87 be 7d 36 16 bf
       -0.199606 -0.20520951 -0.26435354 -0.5867689
000160 ee 97 0d bf b6 44 20 be 50 ff 86 be 73 42 f6 3d
       -0.5530995 -0.15651211 -0.26366663 0.12024393
000170 32 d1 9b be ac 74 9a be c4 1c 30 be de 5a ce be
       -0.3043304 -0.3016714 -0.17198473 -0.403037
000180 1c b8 0f 3e 6e 40 9d bc f7 6f 4e 3e bd f4 89 3d
       0.14035076 -0.019195762 0.20159899 0.06736133
000190 59 21 cc 3d 0d 47 15 3d 31 fd d7 bd 6e 7d 59 3d
       0.09967298 0.036444712 -0.10546339 0.053098135
0001a0 6c 8c 64 be fc 10 d8 bd 08 88 05 3e 5c 71 d4 3e
       -0.22319192 -0.105501145 0.13040173 0.41492736
0001b0 f2 6b e3 3d 0f 9c ce 3e cb eb 28 3e 89 23 5e bd
       0.11104573 0.40353438 0.16496198 -0.054233108
0001c0 68 26 32 3f 8a 0d d1 3e 84 cd ed 3d 94 e8 41 3d
       0.69589853 0.40830642 0.116114646 0.047340944
0001d0 c4 9e 28 3e 2e 37 89 bd 80 be ef 3e 75 66 2e 3e
       0.16466814 -0.06699978 0.46825027 0.17031272
0001e0 d3 55 dd bc 65 37 c1 be 8e ff 3b 3e 06 63 88 3e
       -0.027018463 -0.37737575 0.18359205 0.2663805
0001f0 6e 4a ac 3d 3e c9 0c 3d bf 87 0c 3e 87 8b 68 3d
       0.08412634 0.034371607 0.13723658 0.05677369
000200 4e f0 3b 3e 68 ca 47 be 6e e5 c3 be 0f b6 b5 3d
       0.18353388 -0.19510806 -0.38260978 0.088726155
000210 99 15 d7 3d e1 1f b7 bd a8 98 fe 3d 96 b8 57 bd
       0.10502166 -0.08941627 0.124314606 -0.05266627
000220 2b 16 0b bc 4f 24 0c be fc 44 60 3e 89 dd 3f be
       -0.008489172 -0.13685726 0.21901315 -0.18736853
000230 97 19 85 be cf 7b 8b 3e fb 77 a6 bd f9 6b 2a 3d
       -0.25996086 0.27242896 -0.08128353 0.041606877
000240 96 7c 4a be d8 16 ab 3e e5 d3 42 be e5 e7 2e 3e
       -0.19774088 0.33415866 -0.19026144 0.17080648
000250 a0 9c 9e 3c b9 38 19 3e 33 47 a2 3d e9 78 a0 bc
       0.019361794 0.14963044 0.079237364 -0.019588904
000260 c1 fe 58 3d 0a 10 0f 3e 98 dc b7 3e a4 57 8a be
       0.052977327 0.13970962 0.35910487 -0.2701999
000270 c5 e7 1c be 91 60 47 3d 93 92 1e be d5 cc 61 bc
       -0.15322788 0.048676077 -0.15485601 -0.013781746
000280 c3 5e 6c be 9e 49 67 be a2 77 8b 3d 9c f8 93 bd
       -0.23083024 -0.22586676 0.068099275 -0.07225153
000290 1f 99 cd bd a1 ae 7b 3d 47 44 ed bd 5e ad 8e 3e
       -0.10038971 0.061445836 -0.115852885 0.27866644
0002a0 d2 02 15 be 6d 2c ae bb ec 29 f0 3d 02 dd d6 3c
       -0.14551857 -0.0053153546 0.11726746 0.026228432
0002b0 00 78 a6 3d 99 0b 0f 3a 7b 97 54 bd e8 33 6b 3e
       0.08128357 0.0005456745 -0.051902276 0.2296902
0002c0 e8 45 69 3e 73 ee 1c 3e 5e 6c cb bc 70 53 c9 bd
       0.22780573 0.15325336 -0.024831947 -0.098303676
0002d0 ad 4a 1a bc d7 3f 9d 3e 0d 0e 72 bd e7 1b c1 bd
       -0.009417218 0.30712768 -0.05909543 -0.0942915
0002e0 5f 31 1f be cd 3b c9 be 68 4d 1c 3f 6e e0 05 3e
       -0.15546177 -0.39303437 0.6105561 0.13073894
0002f0 1b c5 be 3d 5d 84 22 be a6 ad 77 be e5 19 a6 3e
       0.09314939 -0.15870805 -0.24187335 0.3244163
000300 e5 bc 18 bd 44 57 8e 3e 5f e5 53 bd b8 0e 1f be
       -0.03728952 0.27800953 -0.051732417 -0.15532959
000310 f2 a2 b4 3e 64 88 51 3d 69 0e 9d 3d ee fc b1 be
       0.35280567 0.051155463 0.07668764 -0.34763283
000320 4c 7a 6b 3d 9d 62 17 be 5d 21 16 be cd 1e e0 3d
       0.05748968 -0.14783712 -0.14661165 0.10943375
000330 bd 3e 4b 3e 55 89 3e 3e 61 de f5 be c2 8f e7 be
       0.19848152 0.18607076 -0.48021224 -0.45226866
000340 71 d8 22 3c be 69 40 3e 47 31 50 3d a6 2d 55 bf
       0.009939299 0.18790337 0.050828245 -0.8327278
000350 dd 9f 5f bf 2b e0 c5 bd a8 b8 20 3e c9 3f f1 3d
       -0.87353307 -0.09661897 0.15695441 0.11779744
000360 a2 b5 bc be 3a 4e f1 be ec aa db bc 3c 9f 99 3e
       -0.36857325 -0.47129995 -0.0268149 0.300043
000370 be dc b4 3c 9e d4 fe bd 2d a8 33 be 38 03 57 bc
       0.022077914 -0.12442897 -0.17544623 -0.013123326
000380 a2 34 94 3d 4a f2 82 3d 9b 3c 1a 3e 89 f8 c1 bd
       0.072366014 0.06393869 0.15062182 -0.094712324
000390 f4 33 32 bd 64 c3 80 bd 99 cc 9e bd 69 d6 bb bd
       -0.043506578 -0.06287268 -0.07753868 -0.09171755
0003a0 30 25 ac 3d b3 88 fa 3d 24 76 0e be e9 5e e7 bd
       0.084055305 0.122331046 -0.13912255 -0.112973996
0003b0 fa a3 1b bf 68 13 1e 3c 78 d2 23 be 2a 45 10 3c
       -0.60797083 0.0096481815 -0.15998256 0.0088055525
0003c0 d2 89 c8 3c 13 cd 55 be 06 6f 3d 3d 1e 8d 23 3d
       0.02447978 -0.20879011 0.04624846 0.0399295
0003d0 17 bf 99 bd ea 15 17 bd 49 65 20 3e e7 b8 92 3d
       -0.075071506 -0.036886133 0.15663637 0.071641736
0003e0 8f 84 23 3e bc f8 2d bd 86 10 26 be 48 34 41 3e
       0.15968536 -0.04247354 -0.1621724 0.188676
0003f0 79 a6 d6 bc 18 19 47 bd 8a 65 50 be 58 9a 8b bd
       -0.026202427 -0.048607916 -0.20351234 -0.06816548

bias f4 [16]
000000 b8 1c 4a 3f 26 45 a5 be 2b 80 14 3f ac a4 84 3f
       0.7895007 -0.3227932 0.5800807 1.0362754
000010 11 77 c0 3e 5c 21 0d 3f 7a a4 cd bd 05 7a 17 bf
       0.3759084 0.5512903 -0.10041137 -0.5917056
000020 fb 91 bb 3e db 17 ca be 34 4a b0 be c1 2c 57 bf
       0.36634812 -0.39471325 -0.34431612 -0.84052664
000030 52 22 09 be 0a 03 89 3e 03 a7 81 be 10 05 c2 be
       -0.13391998 0.2676013 -0.25322732 -0.37894487

weight f4 [120, 576]
000000 0e 73 50 be 8b 66 31 be 1f d8 65 be c5 e0 d8 be
       -0.2035639 -0.17324273 -0.22445725 -0.42358986
000010 ec 7e 1d bc dc 15 19 bb 15 dc db bc 43 60 0d be
       -0.00961278 -0.0023358976 -0.026838342 -0.13806252
000020 40 75 f6 bd bb f7 36 be 04 32 42 3e cd 71 35 3e
       -0.120340824 -0.17867939 0.18964392 0.17719193
000030 d1 99 b8 3d a2 c1 11 be 5b 83 af 3d 53 17 10 be
       0.09013713 -0.14234021 0.08569976 -0.14071397
000040 65 ab 5a bd 71 2c 3a be 16 d1 30 be 76 51 af be
       -0.05338611 -0.18181016 -0.1726726 -0.34241837
000050 02 2c 2e be 1a 61 f2 bc 88 18 97 be f0 57 ea bd
       -0.17008975 -0.029587317 -0.29510903 -0.11442554
000060 42 04 2d 3e 90 a3 fb bd 2c ef 35 3f 0c 1d b6 be
       0.16896155 -0.122870564 0.7106807 -0.35569036
000070 b0 5a a5 3e 9c a2 f3 3d bc 26 c6 be 2b 63 ed 3d
       0.32295752 0.1189625 -0.38701427 0.115911804
000080 54 16 b9 3e 5a 67 8a 3e c1 17 0d bf 07 80 92 bd
       0.36149848 0.27031976 -0.5511437 -0.071533255
000090 e0 30 4a be 5e 4b dc bc 30 c0 5c 3d f5 83 e9 3d
       -0.19745207 -0.026891407 0.05389422 0.11402122
0000a0 23 0c 83 be 25 8a 2c 3d 46 7e ed 3d 3a 60 53 3e
       -0.25595197 0.042123932 0.1159635 0.20642176
0000b0 31 0a 81 3e df fa 21 be ff fd dd 3e 2c 75 bb 3d
       0.25203088 -0.15818356 0.43357846 0.09153208
0000c0 94 5e 75 bd e8 df 67 bb 7d d0 f6 bd cb ba 86 3c
       -0.05990465 -0.0035381261 -0.12051485 0.016446492
0000d0 28 55 c0 be 78 9b 88 3e e3 19 eb 3c 62 5c 83 be
       -0.3756497 0.26681113 0.028698867 -0.2565642
0000e0 e7 66 43 3e a2 7b 24 3e ec a8 0f 3e 53 d4 9e 3e
       0.19082223 0.16062787 0.14029282 0.31021366
0000f0 54 6c 51 3e 41 59 6d 3e d2 d0 97 3d 5b 02 0d 3f
       0.2045148 0.23178579 0.07412876 0.5508172
000100 d8 81 30 bc da b3 06 3f ee 48 e0 3e d7 ab 18 3f
       -0.010773145 0.5261818 0.4380564 0.59637207
000110 08 77 a0 3e 92 44 88 3e f7 b7 0e 3f 1c dd d2 3e
       0.31340814 0.26614815 0.5574946 0.41184318
000120 c9 ef b0 bd 0a 1c cf be 24 63 2b 3d d7 58 89 3e
       -0.086394854 -0.4045108 0.041842595 0.26825592
000130 99 a3 3b be 4b 4e 8a bd fe 4b 8c 3e 1e 25 27 3f
       -0.18324126 -0.067532144 0.27401727 0.6529101
000140 56 85 71 be 79 b1 4e bd 3a 4a 21 be 5c b5 cd bd
       -0.2358602 -0.05046222 -0.15750971 -0.10044357
000150 67 e6 97 bc 77 28 2d be 75 35 9a be c6 3d 05 3d
       -0.018542482 -0.16909967 -0.3011891 0.032529615
000160 1b 24 48 bc f0 e5 1c be 3c c7 73 3e a6 1a 4b 3e
       -0.012215639 -0.15322089 0.2380647 0.19834384
000170 1b cd 2a 3c c2 f9 db 3e 5f f1 30 3d 40 2e 8a 3e
       0.0104248775 0.42963988 0.04319894 0.2698841
000180 23 34 f7 3d aa 22 3f 3d 7a ac 07 3e bb 5f fa 3e
       0.12070491 0.046663918 0.13249388 0.48901162
000190 51 14 06 3f b3 19 70 3e 64 9c f3 3e 43 48 9c 3c
       0.5237475 0.23447303 0.47580254 0.019077426
0001a0 31 c2 a5 3e 2e ba 96 3e fe 70 85 3e 4f 95 77 3e
       0.3237472 0.2943892 0.2606277 0.2417805
0001b0 ad 40 4a be f6 96 b7 bd 4b 55 0c 3f 5d 0d 1a be
       -0.19751234 -0.089643404 0.54817647 -0.1504416
0001c0 f1 12 81 bd 64 86 cc 3e 94 68 53 3e 44 23 38 be
       -0.06302441 0.39946282 0.20645362 -0.17982203
0001d0 07 29 42 be 85 a5 32 3e 91 bd bb 3e 9f 9d 70 3d
       -0.18960963 0.17445953 0.36668065 0.05874407
0001e0 f3 37 97 3d 08 08 70 3d 5b 3e f8 bd b8 2e f2 bd
       0.07383718 0.05860141 -0.12121268 -0.11825317
0001f0 f0 a2 98 3e 12 0b 09 3e ed 51 8e 3e 55 5e e3 3e
       0.2981181 0.13383129 0.2779688 0.44407907
000200 09 15 3e be cd 04 23 bf d4 70 cb be 88 75 96 3e
       -0.18562712 -0.636792 -0.3973452 0.29386544
000210 45 67 a5 3e 0c 4b e1 3d f5 4f 0f 3d 55 19 99 be
       0.3230535 0.11000642 0.034988362 -0.2990214
000220 a6 e4 05 bf 8c fe e3 3d 31 47 91 3f 49 8e c0 3e
       -0.52302015 0.11132535 1.1349851 0.37608555
000230 83 67 29 bd 15 5f 79 be 8b f0 1c bf f2 eb 9f 3e
       -0.041358482 -0.24352677 -0.6130454 0.312347
000240 0a f1 a4 bd 76 49 be be fa 6f 03 3c 94 b0 5c be
       -0.08053787 -0.3716542 0.008022303 -0.21551734
000250 04 06 0e bd 20 79 d3 bb ed 7f 33 be aa 85 be 3e
       -0.034673706 -0.006453648 -0.17529269 0.37211353
000260 51 12 33 3e 14 a4 a4 3e 82 3a 31 3e 3f 65 a1 bd
       0.17487456 0.32156432 0.17307475 -0.07880639
000270 75 61 6b 3e ba 77 f9 3e 19 0f 91 3e 9c fb 05 3f
       0.22986396 0.48724157 0.2833183 0.5233705
000280 eb e0 e2 3e 7e f3 c6 3e ef bf d0 bc 77 15 d2 be
       0.44312224 0.38857645 -0.025482146 -0.41032
000290 ce fa 2a bf d5 27 6b be 6c a3 5b be 68 df a6 3e
       -0.6678895 -0.22964413 -0.21449059 0.3259232
0002a0 55 89 4a bf 70 b6 ef 3e 43 32 1f be bc 71 45 bd
       -0.791158 0.46818876 -0.15546517 -0.04820417
0002b0 d3 a2 bb 3e 8a b2 52 3e 11 ff 28 bf 2e 73 f5 bd
       0.36647663 0.2057592 -0.660142 -0.119848594
0002c0 88 3e 01 bf cb 88 4a bf 5e 2c 1c 3e 38 9a 85 be
       -0.5048604 -0.7911498 0.152513 -0.26094222
0002d0 e9 66 8b be 7e 40 da 3e 25 cf 91 be 6e fe 99 be
       -0.27226952 0.4262733 -0.2847835 -0.30076927
0002e0 00 e4 5b 3e 0b 15 17 be 7f b2 91 3e b7 d6 27 3e
       0.21473694 -0.14754121 0.28456494 0.16390501
0002f0 5f 35 5f be ba b1 02 bf dc 00 9c bd 91 19 35 bf
       -0.21797703 -0.5105244 -0.076173514 -0.70742136
000300 50 a2 b3 be bb 8a 7b 3e 29 c7 e7 3e 3d 1d 05 be
       -0.35084772 0.2456464 0.45269135 -0.12999435
000310 da b6 4c 3e a1 bd f5 bb 51 6b ee bc 6f dd 87 3e
       0.19991627 -0.007499412 -0.029103907 0.26536128
000320 52 c1 a0 be 46 8e ba bd cb cd 2d 3c 9a 9f a1 be
       -0.31397492 -0.09109168 0.010608147 -0.3156708
000330 98 d1 76 3d 93 e9 9d 3e 91 66 9d bd c3 1d 0c bd
       0.060258478 0.30842265 -0.076855786 -0.03420807
000340 e7 6b 93 bd 7a 98 64 be ea 73 ea be 95 2c 81 be
       -0.07198315 -0.2232379 -0.4579156 -0.25229326
000350 08 41 8a be da 70 95 be ff 98 01 bf b6 b6 a2 bf
       -0.2700274 -0.2918766 -0.5062408 -1.2712009
000360 97 b6 38 3e dc 27 ad 3e 87 d3 3d be 60 8c 6c be
       0.18038402 0.33819473 -0.18537723 -0.23100424
000370 f8 f3 06 3f 0d a8 0b bf a0 08 16 be 71 1f 2f 3d
       0.52716017 -0.545533 -0.14651728 0.042754594
000380 12 cb 50 be 7d 08 86 be d0 d3 0f bf b6 1b 34 bf
       -0.20389965 -0.2617835 -0.56182575 -0.70354784
000390 36 d2 19 3d 4c a5 8c 3d ed 8e 65 be 65 8d 05 bf
       0.03755399 0.068674654 -0.22417803 -0.52168876
0003a0 58 be 2b bc 0d 44 8c 3e 36 2f 08 be 6c a6 47 bf
       -0.010482393 0.2739567 -0.1329926 -0.77988315
0003b0 e2 aa 78 bc a0 93 8f bf 84 f4 45 bf fa b2 24 bf
       -0.01517746 -1.1216927 -0.77326226 -0.64335597
0003c0 7e 2b f6 be 59 63 e1 be 99 36 14 bf 1f c3 93 be
       -0.48080057 -0.4402111 -0.5789581 -0.28859803
0003d0 29 c6 a1 be a4 d9 b5 be 0c ba 18 bf 7d 4f 24 bf
       -0.31596497 -0.3551761 -0.59658885 -0.6418379
0003e0 25 ee 71 bf dd e6 69 be 07 2d 16 bf 01 c6 66 be
       -0.94504005 -0.22841974 -0.58662456 -0.2253647
0003f0 36 66 cd be 7c d6 0b be 79 0d 9b 3e 20 20 9d 3d
       -0.40117043 -0.13656038 0.30283716 0.07672143

bias f4 [120]
000000 cb a7 37 3f b5 94 26 bf 1e ca 3d 3f 66 ef 3e bd
       0.71740407 -0.6507066 0.7413653 -0.046615027
000010 ed 4e bf 3f b3 dd 2f bf b7 60 1f bd 23 d8 85 be
       1.4945961 -0.6869766 -0.038910594 -0.26141462
000020 42 12 b6 3f 6d 38 54 be bb c0 7c bd 70 83 88 3f
       1.4224322 -0.2072465 -0.06170724 1.0665112
000030 60 ee b3 3c 94 76 df 3e 82 92 15 bf 03 38 2c 3d
       0.021964252 0.43645155 -0.5842668 0.042045604
000040 b3 44 0e bd a2 eb d1 bc 42 53 65 3e c6 f8 ab bf
       -0.034733485 -0.025625054 0.22395042 -1.3435295
000050 bd ef 4e 3c 98 c5 56 3f 48 04 9a 3e c7 dc 15 40
       0.0126304 0.83895254 0.3008139 2.3416002
000060 bc 7b 5d bd 89 c9 b7 3f 4b fc 32 bd 96 41 67 be
       -0.05407308 1.4358379 -0.043697637 -0.22583613
000070 60 3b 73 3f 53 53 26 bf 59 f6 64 bd ac 9f 4b bf
       0.95012474 -0.6497089 -0.055898998 -0.79540515
000080 f7 42 13 bd fd ec 92 3e 1d 02 78 bf cb 8d ef 3e
       -0.035952535 0.28696433 -0.96878225 0.46787867
000090 68 b5 08 bd 79 36 de be 3b 27 16 bf a4 d3 48 3f
       -0.033376127 -0.43400934 -0.5865361 0.7844794
0000a0 e3 8f 04 3f 3d 47 52 bf b9 ad 0e bf 3d bb 63 3f
       0.51782054 -0.8213995 -0.5573383 0.8895758
0000b0 77 01 43 3f 2f 86 6b be 6f 91 bf 3e ea e8 67 bd
       0.7617411 -0.23000406 0.37415645 -0.05661861
0000c0 28 c0 4f bd 5e a4 17 bd 66 9b 85 be 12 07 e0 be
       -0.050720364 -0.037021987 -0.26095122 -0.43755394
0000d0 fd 12 07 3e b5 12 e9 bd d1 6e b2 3f c8 c3 ec bc
       0.13190837 -0.11380521 1.3940068 -0.02890195
0000e0 ba 35 99 bf 0a 74 0e bd e5 e3 4a bd 84 5b 5d be
       -1.1969521 -0.034778632 -0.049533743 -0.21616942
0000f0 b6 6f e9 3f 99 9f d4 3f 5a 2c 0c be 55 e8 58 bf
       1.8237216 1.6611205 -0.13688794 -0.8472951
000100 c8 12 aa 3f 4f ea d5 3a 56 11 81 bf 4f 65 02 bd
       1.3286982 0.001632044 -1.0083416 -0.031834897
000110 7a 17 56 bf 62 4c 28 c0 f6 0b 74 3f 20 bf 87 be
       -0.8362957 -2.629662 0.9533075 -0.26513004
000120 8d 64 b5 bc 9e f8 87 bd 52 5f 36 bd ac 54 c7 bf
       -0.022142673 -0.06639217 -0.0445245 -1.5572715
000130 80 ac d6 3e 3b 6d 39 3e 1a ff 29 3c 09 96 2b bf
       0.41928482 0.18108074 0.010375762 -0.6702581
000140 2a 7c c1 be e0 f9 73 be 11 2a 10 3d d1 08 06 bd
       -0.37790042 -0.23825788 0.035196368 -0.03272325
000150 50 29 e0 be 35 64 ba 3f 69 e3 a5 3f c2 e3 9c 3e
       -0.4378152 1.4561831 1.2960025 0.30642515
000160 34 0e 65 bf e7 7a 5d bf bb 7a e1 bc c2 0a 70 bd
       -0.894748 -0.8651566 -0.027524343 -0.05860401
000170 13 ae 17 bc 72 d3 6b 3f de 11 46 bc d8 cf 1d 40
       -0.009257811 0.92119515 -0.012089221 2.4658108
000180 84 95 7d bd 11 c5 d6 3e 5d 8d ed bc 2f e8 66 3f
       -0.061910167 0.41947225 -0.028998071 0.90198034
000190 00 f1 0c bc f5 ee 68 3d 9e 5b f3 3c 82 f5 9d bf
       -0.008602381 0.056868512 0.029706772 -1.2340548
0001a0 e5 db 7a ba 80 f1 c0 3f 4c fc 7f 3f 32 08 dc 3f
       -0.000956951 1.50737 0.9999435 1.7190001
0001b0 a0 89 0a 3d 15 9e 9d be 63 56 05 3f 59 b3 ef 3f
       0.033822656 -0.3078467 0.5208494 1.8726608
0001c0 69 53 e1 bf 6a 54 34 be 51 9d 67 3f 7f 28 b9 3f
       -1.760358 -0.17610326 0.9047442 1.4465483
0001d0 e8 e3 8c bc b1 45 cc bd a5 81 63 be 00 ee f3 3e
       -0.017198518 -0.0997423 -0.22217424 0.47642517

weight f4 [84, 120]
000000 88 1d 82 be a7 51 79 be 95 59 77 be cd 96 2b bd
       -0.25413156 -0.24347554 -0.24155267 -0.04189186
000010 54 81 c7 be 02 0d 93 bd bc b5 c3 3d 5a e3 37 3e
       -0.38965857 -0.071802154 0.095561475 0.17957821
000020 4e 95 a5 3e 8f 2f 09 bf c3 f4 01 bd ff 58 d4 3c
       0.32340473 -0.53588194 -0.031727564 0.025921343
000030 31 dd 85 3d d8 de 4e 3d 82 63 55 bf 5d 98 18 3e
       0.065363295 0.05050549 -0.8335496 0.14901872
000040 98 87 ef bc 30 69 8b bd 3c 9e 7e be fc 6c 23 bd
       -0.02923946 -0.06807172 -0.24865049 -0.039898857
000050 89 61 7f 3d 2b cd 1f be 31 87 bd 3c e8 f7 12 3b
       0.062348876 -0.15605609 0.023135753 0.0022425596
000060 e4 22 22 bd 41 8c 4b be d6 bf bd bc 9e cb 11 3e
       -0.039584056 -0.19877721 -0.023162764 0.1423783
000070 9c ae 06 3d 5d 1b 90 3d d5 fa 19 bd 81 a8 24 3e
       0.032881364 0.07036469 -0.037592728 0.16079904
000080 8a 88 0b 3d c2 26 99 be e2 be 39 bd 23 b8 79 be
       0.03406576 -0.29912382 -0.045348056 -0.24386649
000090 69 05 07 3c 04 4a 65 ba 7c 9f 8b be 95 5c d5 bd
       0.008241036 -0.0008746686 -0.27270114 -0.10418049
0000a0 ff 55 70 bd e7 d3 e6 bd 49 02 9b 3e ed 36 80 be
       -0.058675762 -0.11270886 0.3027518 -0.25041905
0000b0 42 c7 a2 bd 9a ca ab bc 3a 62 09 bf 84 f8 4d 3d
       -0.07948162 -0.020970631 -0.53665507 0.05028583
0000c0 40 9d 02 bc 10 63 fb bd c2 0c 03 3e 71 81 45 be
       -0.007972062 -0.12274754 0.12797835 -0.19287659
0000d0 72 51 96 3d 45 2b b3 3e 3e 01 49 be 71 7c 45 3c
       0.07339753 0.3499395 -0.1962938 0.012053595
0000e0 0d 66 80 bf 76 d1 0d bd 7d 51 ff 3c 0d 2f 24 3e
       -1.0031143 -0.034623586 0.031166786 0.16033573
0000f0 dc a7 5b be 97 bf 47 bf f7 cb 31 bd 1b 5a 51 3e
       -0.21450752 -0.7802672 -0.043407407 0.20444529
000100 27 6c b9 3d ed e3 99 bc 0c 97 f5 bc 78 90 c1 3d
       0.090538315 -0.018785441 -0.029979251 0.09451383
000110 e6 a4 e6 3d 66 5e 41 3d df 88 e4 3b 29 ed b1 3d
       0.11261921 0.047209166 0.006974324 0.08687813
000120 9b 07 c6 3c 6e f4 da 3c d5 73 8b be bb b1 51 bc
       0.024173548 0.026727881 -0.2723681 -0.012798722
000130 b5 b1 98 bd 5e 9a c6 3d 0b 3d 7a 3d 9a 51 4b 3e
       -0.0745577 0.09697412 0.06109337 0.19855347
000140 2e cd 57 bf a1 69 88 3d 1e 91 d6 bc 1a 50 e8 3c
       -0.84297454 0.06660772 -0.026192244 0.028358508
000150 2c 55 33 be bb 0f 11 bf 9c 05 be 3d 7e 5c 22 bd
       -0.17512959 -0.5666463 0.09278414 -0.03963899
000160 fe 37 81 bd ee 83 c5 bb 13 35 84 3c dc cc 0c bd
       -0.06309508 -0.00602769 0.016138589 -0.034375057
000170 df e0 2c bc 3e c4 c9 bd 5a b0 82 39 65 1f 96 3d
       -0.01055166 -0.09851883 0.00024926924 0.07330207
000180 4e e5 cb 3e 5f b9 b9 3d b3 a8 03 3e 49 43 10 bd
       0.39823383 0.0906856 0.12857322 -0.035220418
000190 64 fd e1 bd f2 5b 0c 3b 8e c2 53 bc 13 32 99 bd
       -0.110346586 0.0021417108 -0.012924803 -0.07480254
0001a0 da d6 6a bc 83 a2 a1 bd 57 33 8b 3e 4c de 99 3d
       -0.014333451 -0.07892325 0.27187607 0.07513103
0001b0 1c 8c 03 3d c4 80 1e 3e 5c 6e d8 bc e4 5c 69 bb
       0.03211604 0.15478808 -0.026419811 -0.0035608346
0001c0 5c 65 1a 3e 72 01 6c be 92 15 d0 bd 89 56 a2 bd
       0.15077728 -0.23047426 -0.10160364 -0.079266615
0001d0 bf 23 28 3d 50 06 79 3d 36 48 0f 3e 76 a3 34 3d
       0.041049715 0.060797036 0.1399239 0.0441012
0001e0 f8 96 34 3e 60 82 39 3d 07 3e a8 be fd 9d 8e bc
       0.17635715 0.04529035 -0.32859823 -0.017409319
0001f0 8b 4a ab be b5 b9 00 bf 79 2c 83 3c 66 f3 32 bf
       -0.3345531 -0.50283366 0.016012417 -0.69902647
000200 ec 8c d9 bb 84 3a 1b 3e 9b 2f 66 bc 18 ec e7 be
       -0.0066391136 0.1515904 -0.014049436 -0.45297313
000210 7a ff 0b 3d 9d e5 df 3d 78 ee 40 3e 82 80 e2 3e
       0.03417919 0.10932467 0.18840969 0.4423867
000220 55 1e 70 bd 43 e9 a5 bb 85 8e 0e 3e 29 e1 eb bb
       -0.058622677 -0.0050632074 0.13921554 -0.007198472
000230 82 92 f1 3c 68 f9 23 be 17 8c 93 3d 2d 1c 5a 3e
       0.029488806 -0.1601311 0.072044544 0.2129981
000240 1a f6 a5 bd 9b 6a 52 3d d1 91 1f bc 03 c6 81 be
       -0.08103581 0.0513712 -0.009739355 -0.25346383
000250 55 0f 26 be 8b 8e c5 3d fc e4 06 bd 81 a8 53 3d
       -0.16216786 0.096463285 -0.03293322 0.05167437
000260 33 38 9e 3b b5 7d 39 3e f3 aa af 3d 91 bc 1d be
       0.004828477 0.1811436 0.08577528 -0.15403964
000270 24 ff f6 3c d3 43 b1 3d 9e b7 0c 3d ab 43 01 3e
       0.030150957 0.086555146 0.0343548 0.1262347
000280 ef 8d 09 3e 46 75 bd 3c ec fe 31 bf 7a 45 29 bc
       0.1343305 0.02312721 -0.69529605 -0.010331506
000290 2f 49 c0 bd ea 0d d9 bd b8 a5 ca be 18 80 bf 3c
       -0.09388959 -0.10598357 -0.39579558 0.02337651
0002a0 22 19 01 be 50 1f 11 3e 98 65 f0 bd 04 07 94 be
       -0.12607244 0.14172101 -0.117381275 -0.28911602
0002b0 bf bb d7 be a7 d4 51 bd 69 05 4b bf 38 20 ae bd
       -0.42135426 -0.05122819 -0.7930513 -0.08502239
0002c0 16 09 a3 3b f7 2f 33 bd 00 8d f5 bc 94 79 60 bd
       0.0049754484 -0.043746915 -0.02997446 -0.054803446
0002d0 4f 31 63 3d 5f e1 fe 3e 32 1f e4 be 7a 03 87 be
       0.055466946 0.4978132 -0.4455505 -0.2636984
0002e0 78 5f 7c 3d 4b a5 ba 3c 82 b6 8e 3e 53 0d dc 3c
       0.061614484 0.022783896 0.27873617 0.026861822
0002f0 a7 41 d7 3c 46 a4 5a bf 20 85 9e bd 68 e3 1d 3e
       0.026276423 -0.8540691 -0.07740235 0.1541878
000300 aa 14 99 bd 18 b9 2e 3d 0a 2f 4d 3f cb 4a 51 bc
       -0.074746445 0.042656988 0.801499 -0.01277418
000310 55 f6 bf 3d ca 3b 68 3e d2 50 83 bd 2b 8b f4 be
       0.09373156 0.22679058 -0.064118996 -0.47762427
000320 57 72 b8 3d d1 75 e1 3d 4b 60 8e bd b3 cb cb bc
       0.090061836 0.110088 -0.0695196 -0.024877405
000330 9a a8 78 3d b8 80 f9 be 38 84 43 bc 87 84 2e be
       0.060707666 -0.48731017 -0.011933379 -0.17042743
000340 16 e6 42 3c b2 e1 c6 3d 6d d2 5f 3d ae 3f 44 bd
       0.011895677 0.09711017 0.054644037 -0.047912292
000350 c7 0b 22 be 5e 69 c8 be 5f cd 30 3d ac 84 4a bd
       -0.15824805 -0.3914289 0.043164607 -0.049442932
000360 c7 23 39 3d 9d 16 13 be 8f f9 8e 3d cd 74 53 bd
       0.045200136 -0.14364095 0.06981193 -0.05162506
000370 ba bf aa 3c ce 05 fc be 46 6c fa 3c 30 fe 85 bd
       0.020843375 -0.4922318 0.030569207 -0.06542623
000380 02 e6 5e bd 4a a0 31 bd ac 8b 0f bf 7a 3f 51 be
       -0.05441857 -0.043365754 -0.560725 -0.2043437
000390 09 62 04 be 5c f8 90 3a 14 ce 32 3d 86 cd b4 be
       -0.12928022 0.0011060345 0.043653563 -0.35313052
0003a0 88 29 fc 3d 2e 4e 09 3f b9 6c 88 3d af 62 fa be
       0.12312609 0.5363492 0.06661362 -0.48903415
0003b0 4b 12 84 bc 73 11 69 3d e2 39 b0 be 9e fb bd be
       -0.016122004 0.056901406 -0.3441916 -0.3710603
0003c0 7a 2f 5a 3e 7b 2a 4d be 42 73 a2 bc 02 4d d3 bb
       0.21307173 -0.20035736 -0.01983035 -0.006448389
0003d0 9f 7c 0e bf 27 58 be 3e 44 68 a3 bc d0 8d c0 3d
       -0.55658907 0.3717663 -0.019947179 0.094020486
0003e0 9f cf af 39 65 2e 76 be 31 95 95 3d 1c e5 00 3d
       0.0003353329 -0.24041136 0.07303847 0.031468496
0003f0 69 9e 80 bd c0 d8 93 bd 53 49 4e bd a0 b8 87 3e
       -0.06280214 -0.07219076 -0.050362896 0.26508045

bias f4 [84]
000000 24 f8 3b 3f 99 89 ed 3e b2 93 82 3f 84 69 6b 3f
       0.7342551 0.4639404 1.0201323 0.9195788
000010 5b e8 77 be ec bb 18 bf 37 43 43 3f 87 e6 5b 3f
       -0.2420973 -0.59661746 0.76274437 0.8589863
000020 39 49 ab 3f 1f a2 2d 3f ee cd 01 3f 8d b5 4d 3f
       1.3381721 0.678255 0.5070485 0.8035515
000030 45 41 11 3f 59 56 7b 3a af 84 96 be 81 10 42 3f
       0.5674022 0.0009587757 -0.29398105 0.7580643
000040 05 02 ad bf 31 b8 00 3e e5 1a 97 3f fd 92 8f 3f
       -1.3516241 0.12570263 1.1805083 1.1216732
000050 09 8a 42 3f f3 33 c1 be 48 e3 13 3c 23 c0 2f bf
       0.75991875 -0.37734947 0.009026356 -0.6865255
000060 46 29 a9 3f a2 f9 70 3f ce fb 88 3f 35 e3 76 3f
       1.3215721 0.9413091 1.0701845 0.9644044
000070 eb 47 ca 3f df af 5c 3f be 5e a6 3f b4 3c c2 3f
       1.5803198 0.8620586 1.2997663 1.5174775
000080 4e 54 72 3f 90 5b 87 3f b1 cf 9a 3e d8 57 f3 3f
       0.9465989 1.0574818 0.3023658 1.9011183
000090 77 c5 be 3e 0e b9 70 3f 91 05 47 3f dc 36 73 3e
       0.3726003 0.9403237 0.7774287 0.23751396
0000a0 eb 70 0d be 9c f9 dc 3f 96 77 f8 3d 7e c1 3e 3f
       -0.13812606 1.7263675 0.12132184 0.74513996
0000b0 81 d0 13 bf 0b 58 94 3f 0b d1 ec 3f f4 14 d2 3f
       -0.57740027 1.1589369 1.8501295 1.6412644
0000c0 32 e4 93 3f c2 c1 c4 3f 0b 1b 83 3f 73 e7 77 3f
       1.1554015 1.537163 1.0242628 0.9683754
0000d0 04 d8 4d 3f f9 93 ce 3e 90 3d b8 3f 08 d2 30 3f
       0.8040774 0.4034727 1.4393787 0.6907048
0000e0 70 25 a7 3e 7f 07 25 bf 02 3c a2 3f d3 5a 79 3f
       0.3264575 -0.64464563 1.2674563 0.9740421
0000f0 be 98 15 3f d4 3e 42 3f ad 04 ad 3f 00 71 1c 3f
       0.5843619 0.7587712 1.3517052 0.61109924
000100 8c 42 07 40 9e 61 71 3f 40 43 f1 3f 86 ca ab 3f
       2.1134367 0.94289577 1.8848648 1.342118
000110 90 03 8a 3f 41 cc 03 3f b7 cb 90 3f 08 49 97 3f
       1.0782337 0.5148354 1.1312169 1.1819162
000120 ff 2a 5f 3e 1d 22 a9 3e ed c0 93 be 81 02 01 bf
       0.21793745 0.3303384 -0.28858128 -0.50394446
000130 f5 4d ab 3f 68 32 09 3f db 6c d7 3f 49 24 74 3e
       1.3383166 0.5359254 1.6830095 0.23841967
000140 66 4c 9f 3f 46 5b bc 3e 67 a0 8e 3f a1 ca 1c 3f
       1.244519 0.36788386 1.1142701 0.6124669

weight f4 [10, 84]
000000 d4 64 90 bd 6b 72 a0 3c 67 40 6c bd 84 7f ed bd
       -0.070504814 0.019585809 -0.057678606 -0.11596587
000010 8d 5f de 3c e7 9e 26 be 43 85 09 be 34 44 09 bd
       0.027145172 -0.16271554 -0.13429742 -0.03351231
000020 10 b9 97 3d 6f 7c a7 bb 58 76 a1 bd c5 64 78 bc
       0.07408345 -0.005111269 -0.078839004 -0.015160744
000030 9f 90 0e 3c bd a8 e2 ba a0 5d 42 3b 5b 27 04 3d
       0.008701473 -0.001729272 0.0029657856 0.032264095
000040 89 ef 09 3d 95 9c 56 3d 2d 24 7b bc f4 37 e4 3d
       0.033675704 0.052395422 -0.015328449 0.11143485
000050 7f b1 b5 bd 95 dc 11 3d f0 93 2e 3d 18 d7 e7 bd
       -0.08871745 0.035610754 0.042621553 -0.11320323
000060 38 63 15 be 75 27 81 3d 92 1b 13 3d 0a 3e ce 3c
       -0.1458863 0.06306354 0.035914965 0.025176067
000070 af e6 90 be 94 08 b2 3d 33 ef 82 bd 65 a9 52 be
       -0.28300998 0.086930424 -0.0639328 -0.20572431
000080 49 4d 91 3d 35 36 cd bc 21 67 0c bd 02 1e 6b be
       0.07094819 -0.025050262 -0.03427804 -0.22960666
000090 7c 8e a5 bd 09 e8 03 3d d3 b6 60 bd d5 6e b8 3d
       -0.08083817 0.032203708 -0.054861855 0.090055145
0000a0 df 27 e6 3c dc bd 33 be 09 88 71 3d 96 e3 88 3c
       0.028095184 -0.17552894 0.058967624 0.016710084
0000b0 ba 85 b6 bd fe a4 8a 3c 30 79 4f be a6 88 32 be
       -0.08912225 0.016924378 -0.20261073 -0.1743494
0000c0 51 e1 b7 3c eb 22 0b be 4c 0d 23 be e3 a9 a5 3d
       0.022446306 -0.13587539 -0.15923041 0.08089044
0000d0 4a 47 0b bc 57 82 ba bd 9c 5e 31 3c d8 25 d8 3d
       -0.008500883 -0.091068916 0.010825779 0.10554093
0000e0 0a 7a f4 bd 7f c4 99 bd eb 4d 3f bd 76 42 9d 3d
       -0.119373396 -0.07508182 -0.046705168 0.07678692
0000f0 46 d0 a1 3c af 03 c5 bd 13 da 9e bd 79 5b 86 3c
       0.019752633 -0.09619843 -0.07756438 0.01640104
000100 a4 10 7a be 41 7b 6a 3d ae 86 e6 3c 0e 49 32 bd
       -0.2442041 0.05724645 0.028140392 -0.0435267
000110 8c 5f cf bd b3 f5 f0 3d a1 2d 07 3b 61 0b 93 bd
       -0.10125646 0.117656134 0.0020626562 -0.07179905
000120 5f c1 1b bd 06 49 09 bd 9b 1c bd 3d 1d b4 b4 3d
       -0.03802621 -0.033516906 0.09233972 0.088234164
000130 13 e9 ef bd 31 22 b4 3d 22 5d cd 3c 29 ff b0 3c
       -0.11714377 0.08795584 0.025068823 0.021606045
000140 47 aa cb 3d 29 0b 72 bd 7d f2 44 3d 3c 5e 80 3d
       0.09944587 -0.059092674 0.048082817 0.06267974
000150 75 3d cb 3d 11 ad 62 bd 8c ac 84 bd 88 7d 09 3d
       0.099238314 -0.05534083 -0.06478223 0.03356698
000160 59 b9 f9 bc 61 53 62 be 0a 73 56 3c b7 67 15 be
       -0.030483888 -0.22102119 0.013088951 -0.14590345
000170 50 02 a6 3d 8e d8 d9 3c 84 39 d9 ba e2 09 e5 bb
       0.0810591 0.02659252 -0.0016572927 -0.0069897035
000180 94 2d d6 3d f2 a0 f0 3d d5 62 1b 3e 2e 63 b7 bd
       0.10457912 0.11749448 0.1517442 -0.08954464
000190 58 6c 59 3e d1 7a 3f 3d 77 37 a8 3d 00 2a d1 3c
       0.21232736 0.046747986 0.08213704 0.025532722
0001a0 1b 85 66 3d 90 19 15 3d 05 6b 9a bd f0 d2 36 3e
       0.056279283 0.03640133 -0.075399436 0.17853904
0001b0 92 82 6f bc 0d c5 eb 3c 08 20 91 bd d2 f1 c7 bd
       -0.014618533 0.028780485 -0.070861876 -0.097629204
0001c0 02 92 72 3d 2d b2 5b 3a 8d 83 c9 bd d3 6f 99 3c
       0.059221275 0.0008380737 -0.098395444 0.01873008
0001d0 ab ed 2c be 5b e5 2e be 3a 31 5f 3d 32 05 0e be
       -0.16887538 -0.1707968 0.054490305 -0.1386917
0001e0 b3 ca 10 3d 18 16 8e 3c ef cd 09 3d 30 8f 97 bd
       0.03534956 0.01734452 0.03364366 -0.07400358
0001f0 1a e6 9c bc 1e ff 68 be a7 9c 21 3e 00 63 8b be
       -0.01915269 -0.2275357 0.15782414 -0.27223969
000200 99 aa c9 3d 8d 93 77 be 2f 70 d6 bd 2d 6c f0 bd
       0.09846992 -0.2417738 -0.10470616 -0.11739383
000210 8c d1 de 3d 3b a8 5e be 24 0f 31 be 8c 0b bb bd
       0.10879812 -0.21743862 -0.17290932 -0.09133062
000220 8c 00 af bd f3 7b 4d 3c 27 9a f5 bc bb ac cb 3c
       -0.08545026 0.012541759 -0.029980732 0.024862638
000230 4f db ec 3d df 83 46 bd 40 0c 85 bd b1 46 0e 3d
       0.11565267 -0.048465606 -0.06496477 0.034735385
000240 ea 98 9f 3d 10 09 87 3d 6c 48 28 be 50 95 cb 3d
       0.07792838 0.065935254 -0.16433877 0.099405885
000250 ab fc fc bd d9 3a 3e bc a3 24 6a be 3f bc 89 bc
       -0.1235288 -0.01161071 -0.22865538 -0.016813396
000260 1a d3 af 3d ed 1b 69 be 2e 6d fa bd 8f e6 b8 bc
       0.08585186 -0.22764559 -0.122278556 -0.022570876
000270 1a 6b 66 3c 51 f0 b3 3d 1c ec 38 3d 81 b8 eb 3d
       0.014063621 0.08786071 0.045147046 0.11509801
000280 1e ca 96 3d c1 e1 ed 3d 63 3e 26 be 18 38 21 bc
       0.073627695 0.11615325 -0.16234736 -0.009840034
000290 b1 ee 7e bd 23 28 20 be af 0a 66 be 16 ac 11 bd
       -0.062239353 -0.15640311 -0.22465013 -0.035564505
0002a0 35 79 4b 3d 74 be 04 be 4f 3f 9b 3c 5e ac 98 bd
       0.04967614 -0.12963277 0.018951086 -0.074547514
0002b0 38 6c d5 3c f6 01 71 3d 2c d4 67 bd 28 a8 93 3d
       0.02605258 0.05883976 -0.056598827 0.07209808
0002c0 b9 f9 2c be b7 20 1e bc b6 b9 29 bd 80 f4 b8 bd
       -0.16892137 -0.0096513545 -0.041436873 -0.0903101
0002d0 60 54 32 3d 3c 4c 31 3a ea dd b4 bd c7 c4 b9 bc
       0.043537498 0.0006763374 -0.08831389 -0.022676839
0002e0 e6 cc 87 3d 8b 82 63 bb c7 07 ad bc 0d 3c 1e bc
       0.06630878 -0.003471526 -0.021121873 -0.009657872
0002f0 ed bb 05 be af ed b5 3c 3a 92 1e 3e 94 9a 02 bb
       -0.13059969 0.022208063 0.15485469 -0.0019928562
000300 26 be a8 bd 1d da 6a bd 26 b7 b7 bb a7 cd dc 3b
       -0.08239393 -0.057336915 -0.00560655 0.006738383
000310 09 01 f5 bc d0 eb 31 be af 7a ff bd 19 8c b2 bd
       -0.02990772 -0.17375112 -0.12474572 -0.08718128
000320 3e 79 e5 3d ab a7 2d 3d bc de d2 3a db 15 be bd
       0.11204766 0.04239623 0.0016088109 -0.09281512
000330 6a 57 9a bc aa 0a ad bd 58 d0 17 bc 8e bf 8d 3d
       -0.01884051 -0.084493 -0.009265982 0.06921302
000340 5b 0d e0 3c 96 db 42 bd 41 d7 10 bd 9d c0 53 3d
       0.027350118 -0.047572695 -0.035361532 0.051697362
000350 c3 4a 45 be 50 c9 1b 3d c3 94 17 3e f3 96 0e bb
       -0.192668 0.038033783 0.14802842 -0.0021757453
000360 c0 b7 80 3d 09 d0 ba 3c 8a 44 a6 3d 3b c2 a3 bd
       0.062850475 0.022804277 0.081185415 -0.07996031
000370 b8 15 cc bb cc 63 40 be 29 1a 1b bd 2b 36 84 3d
       -0.006228175 -0.1878807 -0.037866745 0.06455644
000380 80 af a8 bd 70 df 0a bd 8b 92 1f bd ee 1a 0e be
       -0.08236599 -0.033904493 -0.038958114 -0.1387746
000390 fc 43 c5 bd 7d fd 31 be 33 85 02 be 94 1f c0 3d
       -0.096321076 -0.17381854 -0.12746124 0.09381023
0003a0 7e 23 e2 3d 8c 42 3f bd 43 37 b1 bd 7f 65 e6 3d
       0.11041926 -0.046694323 -0.086531185 0.112498276
0003b0 e6 4d 09 be 80 e1 94 3d bd a0 e5 bd 19 a7 43 3d
       -0.13408622 0.07269573 -0.11212299 0.04776678
0003c0 b8 1e e4 3d 5a 0d 9b 3d 78 ed 80 bd f4 42 85 3d
       0.11138672 0.07570906 -0.062952936 0.06506911
0003d0 96 78 90 3c 58 fc bd bc a4 67 87 3d 42 8f 29 be
       0.017635625 -0.023191616 0.06611565 -0.16558555
0003e0 89 39 d7 3d fd e9 10 3e 9d 47 01 3c 17 51 1f bd
       0.10509021 0.1415176 0.007890609 -0.038895693
0003f0 23 6e b0 bc 8a 29 d4 3d 93 42 62 3c 1d 84 5c 3d
       -0.021536892 0.103594854 0.013809818 0.05383693

bias f4 [10]
000000 ff b7 0e 3d 72 64 60 bf 4e ad ba bd 21 e3 c9 3e
       0.03484344 -0.8765327 -0.091150865 0.39431098
000010 e9 2e d9 3e ed 30 03 3d 7a f8 11 3c 9f 35 5e bd
       0.42418602 0.03202908 0.008909339 -0.054250356
000020 17 8a 52 bd 11 60 92 be
       -0.051401224 -0.28588918
