model/dqn_cartpole.pth (torch_old, 4810 bytes, 4 tensors)

weight f4 [16, 4]
000000 64 c6 1e c0 cb 21 97 be dd 20 30 40 bb 57 42 bc
       -2.4808588 -0.2951797 2.7520058 -0.011861737
000010 36 01 7b bd 83 a8 a5 3d a8 a8 29 c1 9a f8 ea be
       -0.06128045 0.08088782 -10.603676 -0.45892793
000020 c9 20 c5 3d e0 60 d4 bd 69 b4 3b 3e 6a f5 92 bc
       0.09625394 -0.1037004 0.1833054 -0.017939288
000030 58 c9 63 3b 32 0f b5 3c 59 62 1b 3e 9e 95 27 3d
       0.0034757461 0.022101972 0.15174235 0.04091417
000040 7b b6 70 bc 4b 7d 42 3d a3 02 73 3c bb cd e7 3b
       -0.014691944 0.04748277 0.014832172 0.0070740855
000050 fd ee 6e 3e a6 69 2a 39 da 2a b2 3e 12 09 c0 3c
       0.23333354 0.0001625182 0.34798318 0.023441825
000060 06 8f 05 c0 bd fa 4d bf 2d f5 f4 c0 9c be 41 bf
       -2.0868545 -0.8046072 -7.6549287 -0.7568147
000070 7c 8c a4 3e 68 09 c7 be 6e bb 00 c1 2c 92 6e bf
       0.3213843 -0.38874364 -8.045759 -0.9319179
000080 41 7e c2 be 01 58 b3 3c 8a 2b 81 c0 0b 28 57 be
       -0.3798695 0.02189255 -4.036565 -0.21011369
000090 b3 c8 3d bf 06 dc b9 3d 02 30 50 c0 40 1c ed bd
       -0.7413437 0.09075169 -3.2529302 -0.11577654
0000a0 f2 e4 c8 bd 69 b7 82 3d a5 c4 34 3d bf e3 d1 bb
       -0.09809293 0.06382639 0.044132847 -0.0064053233
0000b0 d5 d1 78 bf b5 79 ba be 99 87 25 c0 b3 56 c6 be
       -0.9719518 -0.3642098 -2.5864012 -0.3873802
0000c0 49 06 8f be cf 5a 55 be a4 c8 62 c0 f5 02 49 be
       -0.27934483 -0.20835422 -3.5434961 -0.19630034
0000d0 2b 49 2f 3e 18 b1 ef 3d 69 29 6e be 8b a4 a6 3d
       0.17117755 0.117037 -0.23257984 0.08136853
0000e0 96 23 84 bf 5f b3 be be cf ee 35 c0 32 4f 13 bf
       -1.032336 -0.37246224 -2.8427007 -0.5754272
0000f0 2d 5e 52 3c 10 d5 d1 3d 1b 9c 92 3e 8e e5 3b bd
       0.012839836 0.102457166 0.28634724 -0.045873217

bias f4 [16]
000000 50 93 1f 3b 14 38 b7 bd f6 d8 f5 be 5e 9e c3 be
       0.002434928 -0.08946243 -0.4801709 -0.38206762
000010 18 27 bb bd c6 5b d4 be 9d 0e 05 bd 4d ab a3 3e
       -0.09138316 -0.41476268 -0.03248464 0.3196663
000020 a7 47 66 3f 39 39 86 3f 80 54 61 be 6f ef 99 3f
       0.8995308 1.0486213 -0.2200489 1.2026194
000030 0c 11 93 3f 60 46 a9 be 60 fa a0 3f b4 bd 55 bf
       1.1489577 -0.33061504 1.2576408 -0.8349259

weight f4 [2, 16]
000000 60 15 e8 bf 60 7d f8 bf 61 70 b0 3c f0 17 95 bd
       -1.8131523 -1.9413261 0.021537961 -0.07279956
000010 76 6d 0e be 7b 4a e4 3b 45 89 e9 bf 6a 15 68 bf
       -0.13908944 0.0069668866 -1.8245016 -0.90657675
000020 4e 3a 95 3f 0a a2 a0 3f 3f c4 f6 bd 2e ed a3 3f
       1.1658418 1.254945 -0.1204915 1.2806756
000030 85 9f af 3f 26 f2 a6 bd de aa 83 3f eb 0a f1 bd
       1.3720556 -0.08151655 1.028652 -0.117696606
000040 ec 26 d8 bf a1 7e 03 c0 6d 96 d7 3d e7 6c 27 3d
       -1.6886878 -2.0546038 0.10526738 0.04087534
000050 53 cd fc ba b2 a9 7b be 14 d0 01 c0 75 71 bf bf
       -0.0019287266 -0.24576452 -2.028325 -1.4956499
000060 b3 c9 fa 3e 8a 76 63 3f c2 0d 04 be db 4c c3 3f
       0.4898201 0.8885275 -0.12895873 1.525783
000070 45 22 6d 3f 71 e1 07 3d 89 3a a1 3f 32 db 28 3e
       0.92630416 0.033173982 1.2595989 0.16489866

bias f4 [2]
000000 d2 5a a5 3e 18 b7 bb 3f
       0.32295853 1.4665251
