model/dqn_cartploe.pth (torch_old, 4810 bytes, 4 tensors)

weight f4 [16, 4]
-0.052864738 -0.046534073 -11.300994 -0.5134051 0.6091407 -0.06594839 0.48776436 -0.012946077
1.1302632 0.67066497 -3.0052714 -0.94963026 1.0610605 -0.057511393 -2.254646 -0.017883746
-0.4202005 0.04002189 -7.40474 -1.1759558 4.2485976 1.0717583 1.4101576 0.65284497
0.028340597 -0.10057079 -5.361292 -0.5186829 0.8685398 0.046850048 -1.423146 0.032994166
0.040584184 -0.24694744 -8.00512 -0.71288896 -0.03881675 -0.082150444 -0.09043589 -0.1534088
0.2486793 0.18104446 -4.3515277 -0.19144179 0.222297 0.30358407 -1.1526219 0.0036161686
0.99010164 0.03282129 -4.3922834 -0.24510613 0.37225753 0.40816203 -3.359334 -0.44585758
0.059753563 0.36413476 0.7919602 0.20621578 0.38680142 0.14896241 3.723821 0.21978392
00000000: b288 58bd 839a 3ebd dfd0 34c1 846e 03bf
00000010: a5f0 1b3f f30f 87bd 40bc f93e c81b 54bc
00000020: 77ac 903f b3b0 2b3f 5e56 40c0 f81a 73bf
00000030: d5d0 873f 1191 6bbd 1f4c 10c0 ef80 92bc
00000040: 8524 d7be feed 233d a1f3 ecc0 b885 96bf
00000050: 83f4 8740 602f 893f 0b80 b43f d920 273f
00000060: 8a2a e83c 0ff8 cdbd b48f abc0 67c8 04bf
00000070: a058 5e3f d6e5 3f3d a629 b6bf e424 073d
00000080: 9a3b 263d cadf 7cbe f914 00c1 e47f 36bf
00000090: 50fe 1ebd 7e3e a8bd 7436 b9bd 3217 1dbe
000000a0: c9a5 7e3e b863 393e b73f 8bc0 5109 44be
000000b0: d3a1 633e 5f6f 9b3e 1d89 93bf 3efd 6c3b
000000c0: 4d77 7d3f 9e6f 063d 968d 8cc0 1afd 7abe
000000d0: 8a98 be3e 9dfa d03e 54ff 56c0 7247 e4be
000000e0: 27c0 743d df6f ba3e e7bd 4a3f 3b2a 533e
000000f0: d60a c63e 9a89 183e 1553 6e40 090f 613e

bias f4 [16]
-0.09108959 -0.770589 -1.428281 1.0439129 -0.9552476 -0.018560642 1.0938698 0.9697294
0.19561422 -0.71348065 1.161551 1.1415294 1.1531492 -1.8811972 1.0976973 0.9848084
00000000: 2e8d babd 5245 45bf e9d1 b6bf f09e 853f
00000010: 1b8b 74bf 7d0c 98bc ed03 8c3f 3040 783f
00000020: 184f 483e aba6 36bf b4ad 943f a31d 923f
00000030: 659a 933f 12cb f0bf 5881 8c3f 671c 7c3f

weight f4 [2, 16]
-2.223923 -0.05356088 -1.1249273 1.0162421 -1.4522849 -1.8356501 1.7330539 0.6315422
-2.5199494 -0.030159118 1.9205545 0.79135734 1.5205477 1.2315714 0.31813657 -0.029504806
-2.7725399 0.21122703 -1.3031436 1.1660979 -2.452875 -1.856599 0.44694784 0.8377822
-1.4897101 0.014013318 0.98016113 0.9938365 1.0014275 1.728127 0.78107566 0.80317426
00000000: c154 0ec0 a762 5bbd 9efd 8fbf 3914 823f
00000010: 79e4 b9bf 95f6 eabf b6d4 dd3f c0ac 213f
00000020: da46 21c0 4110 f7bc bbd4 f53f 6596 4a3f
00000030: 4fa1 c23f 22a4 9d3f cce2 a23e 10b4 f1bc
00000040: 4b71 31c0 e64b 583e 69cd a6bf b242 953f
00000050: e7fb 1cc0 09a5 edbf 59d6 e43e e578 563f
00000060: d2ae bebf 1e98 653c d7eb 7a3f 126c 7e3f
00000070: c72e 803f 4433 dd3f 93f4 473f d49c 4d3f

bias f4 [2]
-1.6212282 -0.59676623
00000000: 6884 cfbf acc5 18bf
