model/mnist_cnn.pth (torch, 252159 bytes, 10 tensors)

weight f4 [6, 1, 5, 5]
000000 f7 9d 81 3d 98 82 08 3e 89 f5 8b be 0d 1a 4c be
       0.063289575 0.13331068 -0.27335766 -0.19931813
000010 d5 6c 03 3c 80 de 21 3e 2d 33 93 bd 22 44 d3 bd
       0.008021553 0.15807533 -0.071874954 -0.1031573
000020 af 14 58 be e6 2e 29 bd a2 c3 1b 3e 1e aa c3 bc
       -0.2110164 -0.04130449 0.15211347 -0.02388483
000030 61 cd d2 be bb 87 be be 7a 99 83 be 15 0d b8 3e
       -0.41172317 -0.3721293 -0.2570303 0.3594748
000040 ba 10 ca 3e d0 02 97 3e 2b 81 b5 bd 26 55 ea bd
       0.39465886 0.29494333 -0.088625275 -0.11442022
000050 7d 5b 84 3e 20 0d 03 3f 1a 5d e1 3e c3 9a 05 3f
       0.2585105 0.511919 0.44016343 0.5218927
000060 f7 01 7b 3e 06 89 ef 3a e9 e0 22 3e 53 be 43 be
       0.24512468 0.0018275089 0.15906109 -0.19115572
000070 4c e2 0a be 28 a2 80 bd c6 74 ae bd bb 8e 19 3e
       -0.13562888 -0.06280929 -0.085183665 0.14995854
000080 f2 46 1c be b2 65 f0 bd 47 e9 32 be a2 80 32 be
       -0.15261438 -0.11738147 -0.174718 -0.17431882
000090 5c 0a 10 be 09 45 07 3e 21 03 21 3d c2 7a 69 3d
       -0.14066452 0.13209929 0.039309625 0.057001837
0000a0 31 25 ba 3c aa 64 0b be 8c 9f 36 bc 81 c6 65 be
       0.022722812 -0.13612619 -0.011146437 -0.22439004
0000b0 f1 f4 2d be 67 d1 95 bd a1 63 12 3e 24 76 03 3e
       -0.16987969 -0.07315331 0.14295818 0.12838036
0000c0 fe d5 ca bd 3b 55 f6 bc f9 e6 d2 3d 00 95 8d 3e
       -0.09904097 -0.030069938 0.10297961 0.2765274
0000d0 72 de 4d 3e c7 83 73 3e b4 ce ac 3e 0b 33 11 be
       0.20104387 0.23780738 0.33751452 -0.14179628
0000e0 b3 20 e7 3d 48 36 81 3d 95 4f 4f 3e f9 80 81 3e
       0.11285534 0.063091815 0.20245202 0.2529371
0000f0 dd 90 46 3b 71 22 0e 3e 9a 11 44 3e 0f 40 2f 3f
       0.0030298748 0.13880326 0.1914734 0.6845712
000100 6d 55 33 3f 13 c8 05 be 49 22 81 3d 9e b3 eb 3e
       0.70052224 -0.13064604 0.063053675 0.46035475
000110 8a c7 83 3f 5a 7f 6c 3f eb f3 b6 be 5d 18 73 bd
       1.029527 0.92381823 -0.3573297 -0.059349407
000120 57 5c cc 3e cc 2d 3a 3f a4 b0 17 3f 48 90 5c 3e
       0.399142 0.7272613 0.5925391 0.21539414
000130 ef 6a 10 3e 79 44 01 be 36 8e b6 bb b3 2a 59 be
       0.14103292 -0.12623776 -0.005571152 -0.21207695
000140 6c 33 9a bd c8 a3 a8 3e c3 c7 3f 3e 0d 48 93 be
       -0.07529339 0.32937455 0.18728547 -0.28765908
000150 fc 1c b9 bd a5 9e 02 3e 3e ef 40 3e 04 d8 8c bd
       -0.090387315 0.1275583 0.18841264 -0.06877139
000160 53 12 8a bd a1 92 8f be bc ca 2d 3e e4 3d 4a 3e
       -0.06741776 -0.28041556 0.16971868 0.19750172
000170 1e 27 76 3d 61 5b ab bd 52 4d 96 be 3e 54 52 bb
       0.0600959 -0.083670385 -0.29355866 -0.003209367
000180 55 b4 56 3e 67 42 17 bd d4 0a 85 be b5 aa 10 be
       0.20967229 -0.03692856 -0.25984824 -0.1412762
000190 18 c0 9a 3e af 14 87 3e 4e 50 e9 bc 9a c8 02 be
       0.3022468 0.26382968 -0.028480675 -0.12771836
0001a0 2b 33 99 be f1 64 b6 3b c0 88 c0 bd 2c 3f 8c bd
       -0.2992185 0.0055662324 -0.09401083 -0.068479866
0001b0 fc e9 b0 bb 00 04 09 3d 11 16 19 be 73 66 3f 3e
       -0.005398987 0.03345108 -0.14949824 0.18691425
0001c0 78 74 9c 3d e3 0d ad 3e ff e5 ac 3e 92 81 7f be
       0.07639402 0.33799657 0.33769223 -0.24951771
0001d0 41 ef 26 bd 92 4b d1 3d eb 41 3f 3d 7a 97 ec 3d
       -0.040755514 0.10219492 0.046693724 0.11552329
0001e0 3d 8c f9 3d d5 94 f9 ba 8b ba 39 be 2d d6 ca bd
       0.121849515 -0.0019041548 -0.18137567 -0.09904132
0001f0 d9 0e 8e be 2a 2a 55 be 69 fe 86 be 93 bd bc be
       -0.27745703 -0.20816866 -0.26365975 -0.36863384
000200 b5 47 9f be a9 f6 45 be cf 5a e1 bd 94 0a 5a be
       -0.31109396 -0.19332375 -0.110036485 -0.21293098
000210 7f 8e a6 be f9 40 00 3e 1a 70 ce 3e 51 9a eb 3d
       -0.3253059 0.12524785 0.40319902 0.11504043
000220 6e 09 92 3d 1f f1 9d 3e 6a 8b 0a 3f 0c fb ee 3e
       0.07130705 0.30848023 0.5411898 0.4667591
000230 ba ef 04 3f a6 2c 0e 3f 92 8d 18 3f 16 b8 94 3e
       0.51928294 0.5553688 0.5959102 0.29046696
000240 e0 1f cf bd 6d 28 55 3d 35 d6 a6 3e 11 40 20 3d
       -0.101135015 0.052040506 0.32585302 0.0391236
000250 38 f4 4a be bd 20 8d be
       -0.19819725 -0.2756404

bias f4 [6]
000000 51 b8 96 bd c6 62 0e be 77 09 b8 3e da 79 13 3e
       -0.07359374 -0.13904867 0.3594472 0.14401951
000010 3e 9c 04 3e 15 04 59 bd
       0.12950227 -0.05298241

weight f4 [16, 6, 5, 5]
000000 5f 6d 6b 3d b6 4d d1 bd 9c 67 cf bc e7 fb 97 bc
       0.05747735 -0.102199 -0.02531796 -0.018552734
000010 10 19 ad bd ca f9 87 bd 80 53 04 be 99 5f d5 bd
       -0.08452046 -0.0663944 -0.12922478 -0.104186244
000020 b6 a7 56 bd b2 10 60 bd 0e dc d4 bd 1f b9 85 bd
       -0.052406035 -0.054703422 -0.103935346 -0.0652945
000030 b7 ac 0c be ca 72 34 bd 51 b3 ba 3c 47 8f af bd
       -0.1373776 -0.044054784 0.022790583 -0.0857225
000040 b0 91 02 bc 79 f5 49 bc 47 45 8b bd 1f 63 39 3d
       -0.007969305 -0.012326592 -0.06800323 0.045260545
000050 7d 5f 63 bd 17 02 9b bd 53 0e a1 3d b4 15 c2 bc
       -0.055510987 -0.07568758 0.0786406 -0.02369199
000060 5b 17 c5 3c a0 0c 40 bc fa 3f 88 3d 02 1c f4 3c
       0.024058988 -0.01172176 0.066528276 0.029798511
000070 01 b5 0f 3d 05 4c b0 3c 5d ba 79 bc 1f 6c 54 bc
       0.03508473 0.021520624 -0.015242186 -0.012965231
000080 c5 18 89 bd eb 4d 1b 3d 7d 83 8c 3d 3f 94 76 3d
       -0.066941775 0.037916105 0.06861017 0.060199972
000090 60 95 80 bd 52 bf 34 3b 08 83 59 bd a0 ae 23 bd
       -0.06278491 0.0027579856 -0.053103477 -0.039961457
0000a0 db 63 38 bd c2 33 cb 3c 88 a4 16 bd 0f 99 0c 3b
       -0.045017105 0.024804953 -0.036778003 0.0021453535
0000b0 7c be 84 ba 93 6a 62 3d 5d e1 71 bd 73 72 26 bd
       -0.001012757 0.05527742 -0.059052814 -0.04063649
0000c0 cd db 36 bd a9 8e 58 3d bc 60 0e be ba 65 95 3d
       -0.044643212 0.052870426 -0.13904089 0.072947934
0000d0 ba c2 41 3e 70 9b 1b 3d 04 b1 c9 bc 07 70 ce bc
       0.18921939 0.037990034 -0.02462054 -0.025199903
0000e0 92 1c 81 3e fd d6 24 3e 2c 43 11 be 43 eb b2 bd
       0.2521711 0.16097637 -0.1418578 -0.08736279
0000f0 2d 01 f0 3d b4 2d 47 3e fa 05 3e 3d 35 c5 88 be
       0.11718974 0.19451028 0.04639242 -0.26712957
000100 f6 f5 26 3d 1b 10 53 3e 28 9c 13 3d 0e 9b 16 be
       0.04076191 0.20611612 0.036037594 -0.14707586
000110 18 5c 1b be 23 d8 fa 3d 3c 8e b5 bd a7 3e 28 be
       -0.1517185 0.12248256 -0.0886502 -0.1643015
000120 bf 2f 87 bd 32 ce 06 3d f2 32 13 3e b4 ed 34 3d
       -0.06600904 0.032911487 0.14374903 0.044172004
000130 0d a5 da bb db 73 d3 3d eb 51 be 3d 3d 55 47 bd
       -0.0066725076 0.10324832 0.09292968 -0.048665274
000140 46 3c 19 3c 8e b3 91 bd 43 32 0d 3d a4 f0 d2 3d
       0.009352749 -0.071143255 0.03447176 0.10299805
000150 71 1b 18 3d c0 b9 0d 3d a3 51 ba bc 33 c1 9a 3d
       0.037135545 0.034600973 -0.022744006 0.07556381
000160 0d 4a e7 3d 09 c2 af bd 8b 28 2f 3d 4b 02 43 bd
       0.11293421 -0.08581931 0.042763274 -0.04760961
000170 e3 6b 5c 3d 47 ba 66 3c cd 0d 4a bd b4 d5 fe 3c
       0.053813826 0.014082498 -0.049329568 0.031107761
000180 9b aa a9 3d d8 8e a1 bc 0a a9 53 bd ae 2e 29 bd
       0.082844935 -0.019721434 -0.05167488 -0.041304283
000190 ba bb a3 bd cb 6b 70 b9 36 95 7f bd 80 8d 88 bd
       -0.079947904 -0.0002292834 -0.062398158 -0.06667614
0001a0 d8 a2 9d bd ac 56 14 3c af f2 59 3d 2e a0 a0 3d
       -0.076970756 0.009053867 0.053209957 0.07843052
0001b0 b2 58 eb bc c9 b6 85 bd 8a 4b f5 bb d8 f5 5f 3d
       -0.028728817 -0.06529004 -0.0074858116 0.054677814
0001c0 68 5f 0f 3d f0 87 56 3c b1 e6 b6 bc 3c 1a 1a bd
       0.035003096 0.013093933 -0.0223268 -0.037622675
0001d0 fb 39 b8 bd df ab 58 3c d9 88 02 bd 9d a2 9b bd
       -0.08995434 0.013224571 -0.03186879 -0.075993754
0001e0 f9 fe 52 3d cb 1b 8d bd 21 30 b2 3c fc c8 07 3d
       0.051512692 -0.06890067 0.021751465 0.033150658
0001f0 fb 33 10 3c 76 5d 81 bd 8c 24 12 be 25 77 26 bc
       0.008801456 -0.063166544 -0.14271754 -0.010160242
000200 70 17 96 3c 3b 78 8e 3d 05 02 7b bd be 67 9f 3c
       0.018321723 0.06956526 -0.061281223 0.019458648
000210 c9 ee 91 3d ab 52 d1 3c a7 09 12 be 21 dc 9b 3d
       0.07125623 0.025552114 -0.14261495 0.07610346
000220 a6 e3 22 3e bc 8b 49 3d 2b 63 e6 bd 6b 3b 04 be
       0.15907153 0.049205527 -0.112493835 -0.12913291
000230 10 1c 38 3e 06 d0 e0 bc de 33 e8 bc 75 19 d9 bd
       0.17979455 -0.027442943 -0.028345045 -0.10600559
000240 63 0d 6e bd 32 14 64 3d 2f 70 de bd b9 17 56 bd
       -0.058118235 0.055683322 -0.10861241 -0.052268717
000250 2b 51 2b 3d 88 c6 4d 3b 3a 13 eb bc 7a cc 29 3c
       0.041825455 0.0031398851 -0.028695691 0.010363692
000260 df eb f3 bb b1 ac 31 bc c2 52 9d bd b3 69 99 bc
       -0.0074438895 -0.0108443955 -0.076818004 -0.01872716
000270 68 c7 62 bc 73 d8 ca bd 3b a2 f0 bb e5 49 c4 3b
       -0.0138414875 -0.09904566 -0.007343558 0.005990254
000280 8f 26 dd 3d e2 38 c1 3d c6 3f bf 3c 3c e3 1a bd
       0.1079837 0.09434678 0.02334584 -0.037814364
000290 35 0e 68 bd ce d6 f7 3d f8 0a 01 3e 90 a9 2c 3e
       -0.056654174 0.121015176 0.1260184 0.16861558
0002a0 08 37 68 3e dd f7 35 3e 7b 74 22 3d 2e 94 38 3d
       0.22677243 0.17770334 0.039661866 0.04506319
0002b0 95 f6 94 3d c9 d9 63 3d 2a ea e1 3c f6 21 89 bd
       0.07273594 0.055627618 0.027577478 -0.06695931
0002c0 ab a7 a3 3d c0 fb 4a 3d 42 5b 82 bd 43 b9 01 3d
       0.079909645 0.049556494 -0.06365062 0.03167082
0002d0 92 94 89 3d 9e 64 b1 3d 22 fd 9a 3d 2f b8 84 3d
       0.06717791 0.08661769 0.075678125 0.06480443
0002e0 34 b9 af bc d8 5d 37 bc 73 22 b5 3d c3 82 62 3d
       -0.021450616 -0.011191808 0.08844461 0.055300485
0002f0 e5 d1 3d bd 83 a3 98 3d 3a 3b 2f 3d 27 8f 5e 3d
       -0.04634275 0.074530624 0.042781092 0.05433574
000300 80 11 22 bd e4 55 08 3d 77 87 a7 bc 8c 62 84 3d
       -0.03956747 0.033285037 -0.020450337 0.06464109
000310 87 97 2c bc 56 7c f9 3c 46 e3 80 3c 89 45 11 3d
       -0.010534174 0.030454796 0.015733372 0.035466705
000320 a5 39 8e bd f2 29 de 3d d7 d1 77 3c 8a d7 78 3d
       -0.069445886 0.10847844 0.015125713 0.06075243
000330 c9 79 91 3d 14 3e 89 be 35 67 60 be 15 24 1b 3c
       0.07103307 -0.26805174 -0.2191437 0.009469052
000340 46 78 d6 3d ca fb 25 3e 15 88 6d bd bd a6 a1 be
       0.10472159 0.16209331 -0.057991106 -0.31572524
000350 6b d0 a2 be 06 0c 48 be e4 47 24 be 32 5f 84 3e
       -0.31799635 -0.19535837 -0.16043049 0.25853878
000360 e9 ba bf ba 96 42 a3 bd 5c 67 21 be 30 54 3c be
       -0.0014627847 -0.07971685 -0.15762085 -0.1839149
000370 63 fc 72 3e 37 71 54 3e eb 6d 34 3e 6a ba 14 3e
       0.2372909 0.20746313 0.17620055 0.14524236
000380 c5 c1 1b 3e 99 2d 6d bd 67 16 11 3d b7 db b6 3d
       0.15210636 -0.057904813 0.035421755 0.08928626
000390 20 0a 6b 3d 04 79 a1 3d 01 b5 8b 3c 31 3e 2a 3d
       0.057382703 0.0788441 0.017054083 0.041563217
0003a0 6b 51 d8 bc 8e aa 5a 3d 71 e8 20 b9 8e 01 2e bd
       -0.02640601 0.05338531 -0.0001534538 -0.04248195
0003b0 93 b5 67 bd c8 3d 95 bd f8 f0 a2 bd a9 34 f4 3c
       -0.056569647 -0.072871745 -0.079561174 0.029810267
0003c0 96 ad 0e 3d ea 65 b7 bc c8 63 8a bd ff cc 0a 3d
       0.034833513 -0.022387464 -0.06757313 0.033886906
0003d0 a8 98 6c 3c f4 d6 37 bb 59 57 fa bc 30 b4 99 3d
       0.014440693 -0.0028051706 -0.030559229 0.07505071
0003e0 4e 4b a8 3c 1b f3 bf bd a5 8a aa 3d ca 4b 86 3d
       0.02054372 -0.093725406 0.083272256 0.06557424
0003f0 ee df 05 bd 98 a4 3e 3d 1d ce 1b bd 56 b7 71 bc
       -0.03268426 0.046543688 -0.03803836 -0.014753183

bias f4 [16]
000000 53 15 8a bd 72 4b 06 bc 9c ce 13 bc b3 a2 27 bd
       -0.067423485 -0.0081966985 -0.0090214275 -0.040926646
000010 90 35 8c bd 3c 23 23 bd 30 eb 88 3d 1e 77 48 bc
       -0.06846154 -0.039828524 0.066854835 -0.012235431
000020 65 d5 78 3c df a6 3e 3d 72 4a 81 bd c2 07 e0 3c
       0.015187596 0.04654586 -0.063130274 0.02734745
000030 ee ab 74 3d 2c 01 17 bd 42 11 8d 3c 24 d9 c4 ba
       0.059734277 -0.036866352 0.017220143 -0.0015018326

weight f4 [120, 16, 5, 5]
000000 52 38 de 3c 72 0b 2c 3d 9b 88 84 3c 10 60 95 bc
       0.027126465 0.042003103 0.01617842 -0.018234283
000010 30 18 6d bd 2e 34 9a 3c e0 2a 0a 3d cf 07 18 3b
       -0.057884395 0.01882371 0.033732295 0.0023198014
000020 20 09 7c bd 42 ca e0 3c 30 9b 84 bc f6 41 ce 3b
       -0.06153214 0.027440194 -0.01618728 0.0062944843
000030 f5 f3 44 bc bd e2 be 3c c1 5b 5d 3d 48 f3 52 3d
       -0.0120210545 0.023301477 0.05404258 0.051501542
000040 be 83 a1 bc 96 e8 0e 3d 4e d0 43 3d b3 1e d2 3b
       -0.01971614 0.03488978 0.047806077 0.006412351
000050 01 2f 02 bd bc 35 f9 bc a5 26 68 bd 82 5e 17 3c
       -0.031783108 -0.03042113 -0.05667748 0.009238841
000060 f7 fe 37 3d 19 0c e8 3c 86 ac 72 3b ab 98 85 3b
       0.044920888 0.028326081 0.0037029102 0.0040770373
000070 2c ee 8e 3d 31 1c 19 bc 08 9e 06 bd ca 48 33 bd
       0.069790214 -0.0093451 -0.032865554 -0.04377059
000080 80 03 6f bb 17 f3 2e bc a2 9f b9 bb b9 ee 40 bd
       -0.0036470592 -0.010678074 -0.0056647817 -0.047102664
000090 fc 14 92 3b 46 71 06 bd 4f 5c 68 bd 2e d6 f9 ba
       0.004458068 -0.03282287 -0.056728657 -0.0019061023
0000a0 21 b8 5f bd fd e5 5c 39 a4 24 8b bc 27 4d 8c bc
       -0.05461896 0.00021066512 -0.016985245 -0.017126633
0000b0 40 63 80 bc b6 a0 5d bd fb 37 bb 3c ed 74 e6 3c
       -0.015672326 -0.054108344 0.022853842 0.028131926
0000c0 ba 4f cc bc 17 e2 4b 3c 54 dc 03 3d b1 88 0e 3d
       -0.02494036 0.012444041 0.032192543 0.034798328
0000d0 62 a0 93 3b ec 93 5e bd f4 e8 df 3c 01 cd d0 bc
       0.004505203 -0.054340288 0.02733276 -0.025488378
0000e0 1f d0 31 3c 72 ac 83 3c 9e 1f 79 bc 1c 1f c1 bc
       0.010852843 0.01607344 -0.015205292 -0.023574404
0000f0 a5 19 03 bd e6 fb 45 3c 41 34 b6 bc c7 03 23 3d
       -0.03200688 0.012083983 -0.022241713 0.039798524
000100 f7 ad 47 bc 8f c8 1f 3d e5 0f 61 ba 41 e1 00 bd
       -0.012187473 0.039009627 -0.00085854373 -0.03146482
000110 08 a4 a4 bb 25 73 32 bc 20 b1 ea ba a9 42 a6 bb
       -0.005024437 -0.01089171 -0.001790557 -0.0050738645
000120 e7 23 b7 3c e5 e4 1d 3d 1f 52 65 b8 40 8b e9 3b
       0.022355987 0.03854837 -5.4674336e-05 0.0071271956
000130 83 fe ba 3c cd 10 ec 3c b5 d5 1e 3d 27 bf 48 3d
       0.022826439 0.028816605 0.038778026 0.049010422
000140 ee 59 66 3d 4a 5e 37 bd f1 f8 09 3d 6b 83 ee 3b
       0.056238107 -0.044767655 0.033684675 0.00727885
000150 8a 03 cd 3c e6 15 be 3c 05 88 0c 3d a7 39 5a 3d
       0.025026102 0.023203801 0.034309406 0.053277638
000160 74 a1 de bc 7e bf 99 3c 12 1e 84 3d 39 b9 d5 3c
       -0.027176596 0.018768068 0.06451048 0.026089298
000170 c2 35 a8 bc 02 9b 4a 3c a8 e2 86 bc 80 f5 4a bc
       -0.020533446 0.012366058 -0.0164655 -0.012387633
000180 2f 63 e8 3c 65 6c bd 3c 93 0e 2c bc db 95 fe bb
       0.028367607 0.023122976 -0.010501522 -0.007769329
000190 82 ef 19 3c 30 99 ec 3b d8 e5 11 bd 6b fc d3 3c
       0.009395482 0.00722041 -0.035619587 0.025877198
0001a0 3a c2 46 3d ba 3d 04 bd 7f c5 8e bc b6 df 09 bc
       0.048525073 -0.03228543 -0.017428158 -0.008415153
0001b0 9c 7c 65 bd e6 f6 bf bc 89 31 70 bd 85 20 76 3c
       -0.05602704 -0.02343316 -0.05864099 0.015022402
0001c0 1b 58 94 bd a5 36 89 3c 81 42 69 bd a2 a2 9d bc
       -0.07243367 0.01674969 -0.05694819 -0.019242588
0001d0 98 5f 97 3c c9 e0 62 bc 56 46 80 3d 02 da 45 3b
       0.0184782 -0.013847538 0.062634155 0.0030189757
0001e0 b6 70 b8 bc 5c cb c6 3c fc 8f b2 3c 1f 65 1d bc
       -0.022514682 0.024266891 0.021797173 -0.009606629
0001f0 14 5f 2c 3d e3 87 e3 bc 3a 82 4f 3c c3 65 0e 3d
       0.04208286 -0.027774757 0.012665326 0.034765016
000200 da 57 3a 3d 73 f5 f9 3b 82 b5 ab bc 4d fa 1d bd
       0.045493938 0.007628137 -0.020960573 -0.038568784
000210 1e d3 19 bd ce f0 a0 bc cb 3f e5 bb 8c b0 e4 3c
       -0.037554853 -0.019646075 -0.00699613 0.027916215
000220 6b 49 dc 3c a9 64 35 3c e2 a6 25 bd ad 5b 6b bd
       0.026890477 0.0110713625 -0.040442355 -0.057460476
000230 06 f5 6f bd c0 96 b3 3c 5a e3 bd bc d9 13 61 bd
       -0.058583282 0.02192247 -0.023179699 -0.05495057
000240 e3 de ef bc 2b 01 2f bd 99 d7 6e bc d9 87 67 bc
       -0.029281085 -0.042725723 -0.01457777 -0.01413151
000250 36 4a fa bc f3 ad 5d 3d 60 3b 1b bc 74 a2 29 3d
       -0.030552965 0.05412097 -0.009474605 0.041414693
000260 fd e8 94 3a 61 0a 18 bc a3 82 69 bc cc 06 13 bd
       0.001136094 -0.009279818 -0.014252338 -0.035895154
000270 f8 a8 24 bd 65 3e 0f 3d 91 a4 87 bc 4c dd 3b bd
       -0.040200204 0.034971613 -0.016557964 -0.045865342
000280 e9 7d 3b 3d 2b c2 72 3a d0 9e 08 bd e7 3b 20 bd
       0.045774374 0.00092605007 -0.03335458 -0.039119627
000290 9e d1 26 bd 88 0d 34 bd a2 5c 39 3d 73 5e 0e 3d
       -0.04072725 -0.043958217 0.045254357 0.034758043
0002a0 67 4b 61 3b 90 8c 21 bd c5 58 53 bc 5b bd 40 bd
       0.0034377219 -0.03944069 -0.012899582 -0.047055583
0002b0 f1 d1 8d 3c d3 de 55 bc c4 3e 49 bc c2 b9 23 bc
       0.017312022 -0.013053614 -0.012283031 -0.009993019
0002c0 5b a6 b8 3c fa 52 9e 3c 7d 95 f7 3c d3 a1 06 3b
       0.022540262 0.019326676 0.030222649 0.0020543232
0002d0 92 d1 9f 3c 9b c2 3c 3c 57 97 4c bd 3d 26 23 3d
       0.01950911 0.011521007 -0.049949016 0.03983139
0002e0 ed 25 09 bd 8c 0c 40 3d 94 59 e4 bc 38 eb 01 bd
       -0.033483434 0.046886966 -0.027874745 -0.031718463
0002f0 48 3b 9f 3c 49 c4 5b bd 08 90 da 3c c0 0f 1b bd
       0.019437447 -0.05365399 0.026680008 -0.037856817
000300 ee 0e c8 3c f3 fe 27 bc 44 1a 10 3d f5 20 40 3d
       0.024421182 -0.010253656 0.0351813 0.04690643
000310 36 78 91 3c 74 73 63 3c 3a a5 bf bc 33 63 ac 3c
       0.017757516 0.013882507 -0.023394216 0.021043396
000320 2d 33 1c bd 60 24 d6 3c 91 1c ad bb 07 31 13 3d
       -0.038134743 0.026140392 -0.0052829464 0.035935428
000330 ba 4e 16 3d cb 27 1b 3c 22 bb a0 bb 49 6d 86 3c
       0.036696173 0.009469937 -0.0049051205 0.016409533
000340 32 7b c5 bc 69 1b 4b 3d f8 0a 4c bd 77 bd ec 3c
       -0.024106596 0.049586687 -0.049815148 0.028898938
000350 b6 17 fd 3c 4d b7 ba bc b2 fa f6 bc 46 a2 49 3d
       0.030895095 -0.022792483 -0.030148838 0.04922702
000360 ef f9 d5 bc f0 d6 8a bc d2 c6 ab 3c 6b 55 61 bc
       -0.026120154 -0.016948193 0.020968828 -0.013753275
000370 f2 cd 3f bd d9 6c 2c bd 94 61 31 bc 74 e1 4f 3d
       -0.046827264 -0.042095993 -0.010826487 0.05075212
000380 b8 fb 0f bd af 66 b8 3c ed 47 ff 3c 6c 6f b3 bc
       -0.035152167 0.0225099 0.031162227 -0.021903716
000390 6b 49 ab bc 79 c8 20 bd 65 b1 be bb 54 9a 41 bb
       -0.020909032 -0.039253686 -0.005819487 -0.002954145
0003a0 3f a2 19 bb f1 0e 73 3c 28 5b 22 3c cd f9 e3 bc
       -0.0023442653 0.014835105 0.009909429 -0.027829075
0003b0 25 ce fd 3b e0 e5 b6 3c 67 a4 e4 3c f4 8c 3c 3c
       0.0077455216 0.02232641 0.027910424 0.011508215
0003c0 4c 97 dd bc 55 25 34 3d 97 34 6c 3b 35 d9 3d bb
       -0.027049683 0.043980915 0.0036042088 -0.0028968577
0003d0 13 6d 1e bd c6 78 2b bd b5 e9 62 3b 22 52 2b bc
       -0.03867824 -0.041863225 0.0034624164 -0.010456594
0003e0 5a ea ce bc 24 c6 72 3c bb 72 1b bc 31 75 eb 3c
       -0.025258232 0.014817748 -0.009487803 0.028742405
0003f0 23 eb 1a 3d 7f 40 2e bc 57 c8 40 bc bf c3 27 bd
       0.0378219 -0.010635494 -0.011766515 -0.040958162

bias f4 [120]
000000 80 71 f7 bb 19 8c 1f 3d e1 1b 0a 3d b7 35 52 3c
       -0.007551372 0.038951967 0.033717994 0.012830189
000010 a6 58 c0 3c 72 b8 85 bc f1 e9 3e bc da 0d 4f bc
       0.02347977 -0.016323302 -0.011652456 -0.01263758
000020 ce 39 96 3c da 93 71 3c 1d 97 1b bd d1 3d 3d bb
       0.01833811 0.014744723 -0.03798591 -0.0028875957
000030 fc cf 34 3d 32 aa 28 3d d4 67 da 3c a7 75 a3 bb
       0.04414366 0.041177936 0.026660837 -0.0049883905
000040 cb ee a3 bc 71 f4 ba bc f5 5c 8c bb 9a 45 ca bb
       -0.020011326 -0.022821637 -0.0042835423 -0.006172848
000050 bb cb ef bc ec 95 40 3d 29 5e f2 3c 9f 5b 1a 3d
       -0.029271951 0.047017977 0.029585915 0.037685033
000060 83 cf cb bc 0e 30 77 3c 12 d0 13 3d 9b a0 f1 3c
       -0.024879223 0.015087141 0.036087103 0.029495528
000070 20 dd 1d 3d d3 b1 3d bc 90 82 20 bd 9d ae 38 bc
       0.03854096 -0.011578041 -0.039187014 -0.0112721
000080 b2 da 24 bd f4 d5 22 3d 88 eb 70 bc b1 5b c1 3c
       -0.040247627 0.039754823 -0.0147045925 0.023603292
000090 3b f8 f7 3c 44 b0 e0 3b 43 69 19 3c df 30 12 bd
       0.030269733 0.00685695 0.009363475 -0.03569114
0000a0 66 34 11 3b a5 d5 e3 ba fc 27 e3 3b bb f3 91 3c
       0.0022156476 -0.0017382397 0.0069322567 0.017816415
0000b0 14 04 37 3c bb 28 0f 3d 10 d2 f0 3a ba 40 20 3d
       0.011170406 0.034950953 0.001837315 0.039124228
0000c0 31 d5 11 bd 9c 35 1d bd c2 70 93 3c 51 7e fd 3c
       -0.035603706 -0.038381204 0.017998103 0.030944021
0000d0 65 67 1b 3d 0d 4a 24 3d 41 ee 65 3d 8a a3 85 3c
       0.0379404 0.040109683 0.05613542 0.016313333
0000e0 c7 4a 98 bc 13 0a ec bc bc e4 93 3c e4 ea 80 3c
       -0.018590344 -0.028813398 0.018053405 0.015737005
0000f0 15 4d e5 3c 60 86 9c bb 64 ae b9 bb 50 5d 85 3c
       0.027990857 -0.004776761 -0.005666541 0.016279846
000100 07 33 a9 3c 8e 96 32 bc 6b e2 42 bc 64 41 e7 3c
       0.020654215 -0.010900153 -0.011894803 0.028229423
000110 77 ac a3 bb 79 2a ac 3c 06 56 33 bd 4e 4d 2f 3d
       -0.0049949246 0.021016346 -0.04378321 0.042798333
000120 2b 8d a8 bc 84 75 0d bd 3b 97 c5 3b 2b 28 95 3b
       -0.020575127 -0.0345359 0.006029991 0.0045519075
000130 a5 f3 2a bb e7 4e 3f bd 66 b8 fa bb 10 d2 2d 3d
       -0.0026085165 -0.046706107 -0.0076513765 0.04243666
000140 e1 d4 c4 3c 53 8c 29 3c dd b3 2b 3d d8 7e cd b9
       0.02402729 0.010348397 0.041919578 -0.00039195153
000150 0d 38 24 bd 6c dd 30 bc e4 32 f1 bc d3 0d be bb
       -0.040092517 -0.010794979 -0.029443212 -0.005799988
000160 ed b9 e1 3c 37 86 47 3d 60 c7 c8 3b de 11 9c 3c
       0.027554477 0.04871198 0.006127283 0.019051488
000170 ff 43 83 3b 1d 07 2a 3d 69 6f 49 3c cc 91 46 3c
       0.0040059085 0.04151069 0.012294629 0.012119722
000180 69 3f fc bc 0c 59 b8 3b 92 6a 35 bd 32 8e 87 3c
       -0.030791955 0.0056258496 -0.044291086 0.016547296
000190 8c 6d 76 3c e2 b5 d7 3c 28 84 cc bc 97 c9 18 3d
       0.015040766 0.026331846 -0.02496536 0.037301626
0001a0 8f 92 b2 3b fa 1d 8f 3c 74 9a b5 3b a3 eb 9a 3c
       0.0054496 0.017470349 0.005542094 0.018911188
0001b0 4a 3e 19 3d 69 6e 28 3d f8 58 fa bc 51 c7 0e bd
       0.03741292 0.04112092 -0.030560002 -0.03485805
0001c0 f0 0d f5 bc f6 83 86 3c 27 9b 3a bd 45 ab 87 3b
       -0.029913872 0.016420346 -0.04555812 0.00414029
0001d0 8e 6b 1c 3d 23 8b 58 3c 40 e2 75 3b 08 8e 59 3d
       0.03818851 0.0132167665 0.0037518889 0.053113967

weight f4 [84, 120]
000000 bb 2a 85 bd fe 2d dd 3d 92 e6 ac bd ae 45 0c bd
       -0.06502291 0.10799788 -0.08442415 -0.03424614
000010 25 3f 02 3c 70 1b 98 bd 5f 24 d9 bd 74 23 16 3e
       0.007949625 -0.07427108 -0.1060264 0.14661962
000020 b4 78 dc 3d cf 4d 38 3d f3 ab ab 3d 13 c5 7e bd
       0.1076521 0.04499608 0.08382406 -0.062199663
000030 ac 58 92 bc 0b ac 06 3c b7 87 12 bd 02 40 3e 3d
       -0.017864548 0.008219729 -0.03577396 0.04644776
000040 c2 93 c7 3d 1c c5 95 3d 94 73 4c bd 18 06 41 3d
       0.097449794 0.07312986 -0.04991491 0.047124952
000050 d7 3c 1f 3c a7 f9 d1 3d a1 12 15 bd 18 73 83 3d
       0.009719095 0.102526955 -0.03639472 0.06418437
000060 e6 f9 0b be e8 d2 0a 3e 88 e5 c6 bd fc 78 12 3e
       -0.13669547 0.13557017 -0.09711748 0.14303964
000070 0f 99 6d 3d 9a d2 d7 3c e6 e2 09 3c 30 1c d9 3d
       0.058007296 0.02634554 0.008415913 0.106010795
000080 b5 af 37 bd 3f 30 33 3d 69 16 c0 bb 19 3e 01 3e
       -0.0448453 0.043747183 -0.0058620465 0.12621345
000090 16 ed e4 bd a2 75 1b bd 11 8f 50 3d 12 6b a4 bd
       -0.11178033 -0.03795398 0.05091769 -0.080282345
0000a0 09 69 ff 3c 8c b5 26 bd f5 51 33 bd 5f 18 79 3d
       0.031178014 -0.04070048 -0.043779332 0.060814258
0000b0 a8 17 cd bd 94 2c 80 3b 22 9e be 3c d8 2b 0d 3d
       -0.10014278 0.003911564 0.023268763 0.03446564
0000c0 51 1e 3a bb fc 23 0e 3d e7 c3 f2 bd cf eb a2 3d
       -0.0028399418 0.034702286 -0.11853772 0.07955133
0000d0 49 8a ec bd b1 d9 38 bd 43 74 18 3e aa 37 fa bd
       -0.11549813 -0.04512948 0.148881 -0.12217648
0000e0 48 b3 67 3d 88 a8 de 3d 40 6e 1a 3e f0 17 fe 3d
       0.05656746 0.108719885 0.1508112 0.124069095
0000f0 cd 74 91 3d c8 1e c7 3d 36 ce c4 3d db 14 6e ba
       0.07102356 0.09722668 0.09609644 -0.0009082087
000100 3b 5f 6d 3d 52 a7 9f bc 3e 24 0e be 96 5e f8 bd
       0.057952147 -0.019488964 -0.13881013 -0.12127416
000110 28 90 8e 3a d1 ef 84 3d d6 83 dc 3d 2f e2 df bd
       0.0010876702 0.06491054 0.10767333 -0.10931813
000120 6b 2a 82 bd 3a ed fc bc 3d 99 93 3d 98 f9 ef 3d
       -0.06355747 -0.030874837 0.07206962 0.11717528
000130 35 92 b4 bc bb 02 19 bc c4 46 89 bd 87 b8 75 bd
       -0.022042373 -0.00933903 -0.067029506 -0.059990432
000140 7a b4 b9 bc 01 95 26 3c 41 f6 b5 3d 83 ac 22 3d
       -0.022669066 0.010167361 0.0888486 0.0397153
000150 3b 4e 11 bd fa d4 70 bd 9a c5 c0 bd a8 98 e1 3d
       -0.035474997 -0.05879686 -0.094126895 0.11015445
000160 82 e0 6c b9 f7 e2 5d 3d f1 75 ae bd e0 32 98 3d
       -0.0002259035 0.05417153 -0.08518589 0.07431579
000170 47 31 f2 3b 0c 12 92 3d a2 f7 b0 bd 9b f9 e4 3c
       0.007391128 0.071323484 -0.08640982 0.027951052
000180 e5 fa 9a 3d f9 38 c8 bd c2 33 bf bd ee 86 f3 3c
       0.075673856 -0.09776492 -0.09336044 0.029727425
000190 fb 33 13 3c 38 26 af bd 47 bd 62 3e 5f 93 1a 3e
       0.008984561 -0.085522115 0.22142516 0.1509528
0001a0 97 51 37 3e b0 08 3b 3d 02 31 de 3d f4 c8 21 bd
       0.17902218 0.045662582 0.10849191 -0.039498284
0001b0 87 b5 95 3d 51 21 9c 3d d2 60 a5 3c 06 a5 02 bd
       0.07310014 0.07623542 0.02018777 -0.03189566
0001c0 fb f7 5a bd cf 4a 91 ba a2 2b b5 bd 55 89 17 bb
       -0.05345915 -0.0011084917 -0.08846213 -0.0023122628
0001d0 ef 2e 65 bd 28 d5 dd bd 7c f7 b2 3c ae 75 08 be
       -0.055952962 -0.10831672 0.021846525 -0.13326141
0001e0 4e c8 f0 bd 7f ad 25 3b f3 8c 6e 3c 31 d0 68 3d
       -0.11756955 0.0025280414 0.014559972 0.05683917
0001f0 61 21 e2 bc a8 62 ef 3d 17 6a ba 3d f1 09 14 bd
       -0.027603807 0.11688739 0.09102266 -0.036142293
000200 43 45 0b 3e 75 98 cc 3d 5d e1 f3 bd b9 76 0c bd
       0.1360064 0.09990016 -0.11908219 -0.03429291
000210 35 e5 bf 3d 04 6b 1c 3d bc ae 99 3b 9a be 4e 3c
       0.0936989 0.038187996 0.0046900194 0.012618685
000220 22 2c bb 3d c2 c9 ae 3c 9d 45 2c bd 6a a7 84 3d
       0.09139277 0.02133644 -0.042058576 0.06477244
000230 c0 a6 36 3c 06 fb 6f 3d 51 a3 5d bd fa a7 9d 3c
       0.011148155 0.058589004 -0.05411083 0.019245137
000240 6f f0 79 bd 31 ad ae 3d 08 a4 a9 bd 0a 7e a9 bd
       -0.06102031 0.085291274 -0.082832396 -0.08275993
000250 56 b1 ad 3d bd 57 57 bc d7 51 20 3e 8d c1 6b 3d
       0.0848109 -0.013143477 0.1565622 0.05755763
000260 85 af 3a bc c8 26 b5 bd f9 5f 71 3d bf 97 09 3e
       -0.011394386 -0.088452876 0.058929417 0.13436793
000270 a0 c5 e8 3d 7d e7 92 3b 99 73 d4 3d fa d4 65 bd
       0.11365819 0.004483162 0.10373611 -0.056111313
000280 62 72 8a 3d 0d 0e 18 3d e9 ed 0a bd 8b 16 af 3d
       0.06760098 0.037122775 -0.033918295 0.085492216
000290 20 d4 45 3d 18 b8 89 3d c2 ee 28 be a1 3c 0a 3e
       0.048298 0.06724566 -0.16497329 0.1349969
0002a0 81 02 b5 bd 67 f1 22 39 f4 c0 3b bd ab bf 6c 3d
       -0.08838368 0.00015539453 -0.04583831 0.057799976
0002b0 46 19 64 bd fe 7f 84 bd bc 24 af bd dc e8 71 bc
       -0.055688165 -0.06469725 -0.085519284 -0.014764991
0002c0 73 f6 90 3c 5a 3c 99 bd 64 a9 85 3d d6 77 38 bd
       0.017695641 -0.07482214 0.06526449 -0.04503616
0002d0 bf 76 bb 3d 9c e3 df bd 1a 5e 0b bd 57 ed 08 bd
       0.091535084 -0.10932085 -0.03402529 -0.03342947
0002e0 5c 04 03 bd fd 3d c0 3d ab 4d 02 3d 2f e1 8e bd
       -0.03198658 0.09386823 0.03181235 -0.06976544
0002f0 57 15 77 3c 2d 37 4a bd 48 e6 0f 3e 6a 7b 41 bd
       0.015080771 -0.049369026 0.14052689 -0.047236837
000300 f5 a0 82 bd 2b e7 82 3d a3 4b a0 bd aa 78 8a 3d
       -0.06378356 0.06391748 -0.078269266 0.06761296
000310 dc 44 ab bb ba c6 7a bd e5 c7 57 3d dc b5 46 bc
       -0.0052267145 -0.061224677 0.05268087 -0.01212832
000320 aa 8d 7f bc f1 27 14 bd cf 9d 3c 3d 69 bb 03 3c
       -0.01559774 -0.036170904 0.046048936 0.0080402875
000330 56 70 48 bd 2d 43 a0 bd c8 b2 d2 bc 40 b0 27 3d
       -0.048935257 -0.07825313 -0.025720015 0.04093957
000340 a1 85 9f 3c d2 e2 a7 3d ca a3 d0 bc 4b 6b 8a 3d
       0.019472899 0.081975594 -0.025468726 0.06758746
000350 42 6e a0 bd dd 84 ea 3b 2f 19 6a bb 58 c4 f3 bb
       -0.0783353 0.007156952 -0.0035720577 -0.0074391775
000360 05 2e 99 bb 42 92 1a 3c df 5f 0a 3e 1b da 88 bd
       -0.0046746754 0.009434285 0.13513134 -0.06682225
000370 cc e0 fa bd 59 d1 0d 3c 13 34 88 bd 4e 47 21 bd
       -0.12249908 0.008655869 -0.06650557 -0.039374642
000380 7e 1f d4 3d 53 0e 29 bd ce de 52 bc 77 97 5a 3d
       0.10357569 -0.041273426 -0.012870504 0.053367104
000390 60 9d 6c 3d 6e 26 85 bd 23 f6 7e 3d 57 9a dd bb
       0.057767272 -0.065014705 0.062246453 -0.0067627835
0003a0 b8 b4 b5 bd 16 1d fd 3d 4c aa 5a bd a4 16 3d bd
       -0.0887236 0.12359063 -0.053385064 -0.04616417
0003b0 e9 84 e2 3d b7 dd fc bd 3e 4b a0 3d 62 d3 f9 bb
       0.11060507 -0.12346976 0.07826851 -0.0076240757
0003c0 e2 d4 02 bd 63 a0 ab 3d b2 51 b5 3c 7c c4 77 bd
       -0.031941302 0.08380201 0.022133682 -0.060490116
0003d0 b0 f5 84 bd e6 19 8f bc 92 97 86 3d ff b5 09 bd
       -0.06492174 -0.017468404 0.065718785 -0.03362083
0003e0 70 e6 f0 3c 94 f7 a3 3d 68 55 96 3d d8 d7 c9 bc
       0.029406756 0.08006206 0.07340509 -0.024639055
0003f0 04 f6 4a bd 2b c6 00 bc 25 3a 4b bd 88 1c 4a bd
       -0.049551025 -0.007859747 -0.049615998 -0.049343616

bias f4 [84]
000000 63 48 81 bd 66 41 8b bc e2 59 88 3d 12 49 d2 3c
       -0.06312635 -0.016998958 0.06657769 0.025669608
000010 6f 51 85 bd 73 5e 11 bd d3 0d 6c bd 50 c0 f7 3c
       -0.06509673 -0.035490464 -0.05763037 0.030243069
000020 95 fa 01 3d 51 5e 5b 3d 0b b0 7f bd a0 f3 82 3d
       0.031733114 0.053556744 -0.062423747 0.06394124
000030 a4 1b 16 3d a3 ef 2f bd f6 b4 86 3d a1 6f 6e bd
       0.036647454 -0.042953145 0.06577484 -0.058211926
000040 02 48 3e bd 69 e8 89 bd 3a 70 d7 3c 9b de c4 bd
       -0.04645539 -0.06733782 0.026298631 -0.09612771
000050 4a af 6e 3d a9 ec ca 3d 8d 3a a7 3b d1 16 79 3d
       0.058272637 0.099084206 0.0051034153 0.060812775
000060 86 77 9b 3d 40 96 10 3c 6b 1a 31 bd ab 84 37 3d
       0.07591157 0.008824885 -0.043238085 0.044804256
000070 5d c9 a5 3d b5 45 bf 3b a2 79 c3 3c 2a af 41 bd
       0.080950476 0.005837167 0.02386171 -0.04728619
000080 e1 d1 ff bc be ce e4 3c a6 db b0 bc 7d 72 78 3d
       -0.031228008 0.027930614 -0.021589112 0.06065606
000090 37 89 9a 3d 69 8b b9 3d 44 82 93 bd 0b 4d 92 bd
       0.07545703 0.090597935 -0.072025806 -0.07143601
0000a0 9d dc 03 3d a7 f0 24 3d a7 08 b1 bd 60 be 1c 3c
       0.032192815 0.040268566 -0.086442284 0.009566873
0000b0 1d d7 94 bd c0 7e 88 3c 5f 0e c6 3c 57 d1 04 bc
       -0.07267592 0.016662002 0.024176775 -0.008106551
0000c0 9e a4 95 3d 72 b9 a1 bd ef 1f 7a 3b 5b 24 b6 bd
       0.07306789 -0.07896699 0.0038166007 -0.08893653
0000d0 48 37 80 bd 74 8d 16 bd 63 92 ba bd 55 f1 0b 3d
       -0.06260544 -0.036755994 -0.09109952 0.0341657
0000e0 6e 55 aa 3d 7c f9 c1 3d b5 8d ac 3c 90 7c b6 bd
       0.08317076 0.094714135 0.021063665 -0.08910477
0000f0 e5 9b 5d 3d c5 1c bf bc 53 af 5c bd c7 1e 52 3c
       0.05410375 -0.023329148 -0.05387814 0.012824721
000100 10 10 e6 bc e1 9c c0 3d 81 40 97 bc 0e 8b 70 3d
       -0.028083831 0.09404922 -0.018463375 0.058726363
000110 fa d5 c8 3a 91 e7 3c 3c 55 4e 9e 3d f2 4f 94 3c
       0.0015322559 0.011529819 0.077297844 0.018104527
000120 57 12 4d bd 4e 54 ab bd 30 a2 f5 bc d6 99 33 bd
       -0.05006632 -0.08365689 -0.029984564 -0.04384788
000130 00 13 16 3d 00 9b 25 bd cb 69 37 bd f0 5a d8 bc
       0.036639214 -0.040431023 -0.044778626 -0.02641055
000140 7a b4 9b bc c4 48 25 bd e7 1b a7 3d b2 9c 72 bd
       -0.019006956 -0.040352598 0.08159619 -0.059231468

weight f4 [10, 84]
000000 a7 27 67 be 36 59 88 bb 39 5d a5 3d ba ac 36 bd
       -0.2257372 -0.0041610254 0.080744214 -0.04459832
000010 2d 43 83 bd 63 78 cd bd 2b e7 b0 3d 23 69 3c bd
       -0.06409297 -0.100327276 0.08637842 -0.045998704
000020 10 ae 02 be 88 37 b5 3e c7 3f dd bd 46 da e6 3d
       -0.12761712 0.3539393 -0.1080318 0.11272101
000030 cc 8c fb 3d 30 5b c8 bc d8 d9 ea bd 0c 81 38 3e
       0.12282714 -0.024457544 -0.11467332 0.18017977
000040 32 08 8c bc 83 6c 16 be d7 d2 a4 3d 06 81 57 3d
       -0.017093752 -0.14689831 0.08048027 0.05261328
000050 28 b2 53 bd 3a e4 80 bc 06 84 88 3d 6c 22 c3 bd
       -0.051683575 -0.015733827 0.066658065 -0.0952805
000060 c9 7c d6 3d 6c 6d 37 3e c7 35 38 bd 9b 8e 2b 3e
       0.1047302 0.17912835 -0.04497316 0.16753618
000070 6e 2c 92 bc 28 a0 8e be 96 fe 13 3e 36 a9 7b 3e
       -0.017843451 -0.27856565 0.14452586 0.24576268
000080 5c 58 bd 3d 4a 44 f2 bc a2 43 6a 3c 4e 58 c2 bd
       0.09245369 -0.029573578 0.0142983515 -0.09489499
000090 3a ce f3 3d 78 ad d7 bd 7c 9b f3 bd 7d cf ec bd
       0.11904569 -0.105311334 -0.11894891 -0.11563013
0000a0 4a c0 91 3d 1b f7 fd 3d 97 d3 2f 3d 90 0d b4 bd
       0.07116754 0.12400647 0.042926397 -0.08791649
0000b0 13 45 a4 bc a8 db 84 bd 78 25 3d bb 6c 2f 95 bc
       -0.020052468 -0.064872086 -0.0028861444 -0.01821109
0000c0 af a3 bb bd 96 74 0e be 6b e5 3e bd 93 07 c0 bb
       -0.091620795 -0.13911662 -0.04660551 -0.005860278
0000d0 25 25 e4 3d 9c 18 2b be 31 35 17 bd f7 3b 63 3d
       0.11139897 -0.16708606 -0.03691596 0.05547711
0000e0 41 05 85 bc 80 77 f9 3c c0 81 68 3e f6 04 77 3d
       -0.016237857 0.03045249 0.22705746 0.060307465
0000f0 21 07 13 3d b6 7c 77 3d 46 e4 dc bd 4d 3c 96 3d
       0.03589547 0.060421668 -0.10785727 0.0733572
000100 42 77 b8 3d 74 5b d8 bd f1 6b 0f 3e 15 ba 87 3d
       0.090071216 -0.10564318 0.1400602 0.06627289
000110 c7 41 63 3e 8d 38 88 3d d1 f9 b6 3d ea 7a a4 be
       0.22193061 0.06651411 0.089343674 -0.32125026
000120 9c b1 bb 3b 3a c2 c0 bd 31 28 8e bd c2 94 e4 bc
       0.00572796 -0.09412046 -0.0694126 -0.027902965
000130 fe 12 16 be bd 04 be 3c 1a 04 39 be 11 ad cd bd
       -0.14655682 0.023195619 -0.18067971 -0.100427754
000140 ee b7 d4 bd 6e 24 5d 3c d2 a2 24 be 7a 4f 1e 3d
       -0.10386644 0.013497455 -0.16077736 0.038650014
000150 29 29 14 be 79 a6 83 3d 7f 9b 09 bd 53 e8 12 be
       -0.14468826 0.064282365 -0.03359556 -0.14346437
000160 59 17 a0 bd d5 79 d9 3d 00 a0 cb 3d f9 9b db 3c
       -0.07816953 0.10618941 0.09942627 0.026807772
000170 03 fb b2 bd 71 7d e2 3d d8 7a 94 3d 33 1f 65 3d
       -0.08739283 0.11059082 0.07249993 0.055937957
000180 06 bc 9f bd 35 23 ca 3d be b7 5e 3e 9c 42 3e be
       -0.077995345 0.098699965 0.2174978 -0.18580097
000190 42 e3 13 be f6 17 c1 3c e0 fb 28 be 15 93 82 3c
       -0.1444216 0.023570996 -0.16502333 0.015939275
0001a0 dd 63 80 3d 2f b5 4b 3e 4b 4e 0a 3d 78 92 07 be
       0.062690474 0.19893335 0.033766072 -0.13239467
0001b0 78 cd fc bd 2f e0 98 bd 81 34 07 3e 1e 91 17 be
       -0.123438776 -0.074646346 0.13203622 -0.14801452
0001c0 8d 33 25 3e 0c e8 83 bc f6 8e b7 bd 67 41 8a 3d
       0.16132946 -0.01610186 -0.089628145 0.06750756
0001d0 80 ec 0a 3d 9c ed c5 3d 05 5f 92 3d 6e 9a 4b 3e
       0.03391695 0.09664461 0.0714703 0.19883129
0001e0 03 ac 27 3e c3 7f 88 3e 20 61 41 3d 06 b9 58 be
       0.16374211 0.26659974 0.047211766 -0.21164331
0001f0 81 be ee bd 18 0b bf 3d 4b eb 56 3d 5e da 1f 3e
       -0.116574295 0.09328288 0.052470487 0.15610644
000200 49 71 e3 bd 11 1d 03 3e a5 52 87 3e 7c 08 9a bd
       -0.11105592 0.12804057 0.2643024 -0.075211495
000210 00 21 bf 3d 03 91 d8 3d 91 fd 17 3e de c1 ab bd
       0.09332466 0.10574534 0.14842822 -0.083865866
000220 09 46 c5 bd 15 64 72 bd f9 aa e2 3d 0e f8 07 3e
       -0.09632499 -0.059177477 0.11067767 0.13278219
000230 81 03 a2 3b 1e 93 4d 3e f2 61 44 be f0 b7 92 3c
       0.0049442654 0.20075652 -0.19177988 0.017909974
000240 6c fb 8c bd 8c bf 95 bd c5 8d b3 bd 3b fe 08 bc
       -0.068838924 -0.07311925 -0.08767275 -0.0083613945
000250 30 12 0e bd 32 d5 2e 3e 4a 80 63 3d 74 a7 8c bd
       -0.034685314 0.17073515 0.055542268 -0.06867877
000260 90 8a d3 3d f9 8a 17 be 7a 8b b3 3d 4b ca c6 bd
       0.10329163 -0.14799108 0.087668374 -0.09706553
000270 8b 03 94 be 10 d8 1b bb cb f7 1d 3d 29 32 9d bd
       -0.28908953 -0.0023779906 0.038566392 -0.07675583
000280 8d 87 2d 3c 89 a4 d4 3d 62 58 24 3e e8 7a 4c be
       0.0105914 0.10382945 0.1604934 -0.1996876
000290 1a fe bb bd 32 b8 0e bc 29 9c e4 bd 6c 3f 2e 3d
       -0.091793254 -0.008710908 -0.11162598 0.042540953
0002a0 f1 28 85 bd 8f 8e f8 bd 64 ef 19 bb a9 2e ea bd
       -0.065019496 -0.12136566 -0.0023488635 -0.11434681
0002b0 08 a8 9c 3d 96 9b f9 3c 3f 24 05 3b 5f 3a 60 3d
       0.07649237 0.030469697 0.0020315794 0.054743167
0002c0 97 99 bc 3d f0 28 06 be a8 06 a9 3d b7 00 d2 3d
       0.092089824 -0.13101554 0.08253223 0.102540426
0002d0 6e 08 59 3d 5b 74 70 ba 40 13 6d bd ef 6a 5d be
       0.052986555 -0.0009172612 -0.057879686 -0.21622823
0002e0 b8 33 26 3e 5d 4c 2f be 90 c4 af 3e 1f e9 f3 bd
       0.16230667 -0.17118974 0.34329653 -0.11909699
0002f0 88 72 39 3e 57 45 30 bd ff 72 bf bd c0 0b 3f be
       0.18110096 -0.043034878 -0.09348106 -0.18656826
000300 09 51 0d be 6f 18 c2 bb cf 64 98 3e 54 8b 93 3d
       -0.13800444 -0.005923323 0.2976441 0.07204309
000310 7d fe ef 3d c3 ba 7b 3c 45 4c 9e 3d 1a 7d 71 3d
       0.11718462 0.015364352 0.07729391 0.058957197
000320 be c4 0b bd bd 73 4c bd ae 44 f6 bc 0a e2 ba be
       -0.034123175 -0.049915064 -0.030062046 -0.3650058
000330 b2 b6 b7 be 66 43 23 be 8c 52 12 3e 52 6f 15 3e
       -0.35881573 -0.15943679 0.14289302 0.14593247
000340 aa bf 4d bd cc 7e 5f 3d 72 07 ca 3d 72 b9 92 bc
       -0.050231613 0.054564282 0.09864701 -0.017910693
000350 79 f1 90 bd da 76 0c 3e b7 80 2c 3e ea 2b b6 bd
       -0.07077307 0.13717213 0.16845976 -0.08895095
000360 3a d6 a7 3d 77 0e 3b 3d db 68 1f bb 0b bc 9b 3c
       0.08195157 0.04566809 -0.0024323973 0.019010564
000370 c3 2a 1b bd 94 8e 36 3e a7 f4 d8 bd c4 52 05 3e
       -0.037882578 0.17827827 -0.10593539 0.13019854
000380 73 ee 06 3d d1 ad 4a be f8 9d 45 3e 45 e5 d6 bd
       0.032942247 -0.19792868 0.19298542 -0.104929484
000390 bf 08 05 3d 69 25 ca bd 18 e0 1d be bc 8e 37 be
       0.032479044 -0.09870417 -0.15417516 -0.17925543
0003a0 f4 e9 23 3e f9 c8 ef 3d b7 23 90 3d 5f 4e b9 3d
       0.16007215 0.11708254 0.07038062 0.09048151
0003b0 eb 3d c4 bd 4e 15 43 3d 62 40 82 bd 0f 74 8d 3d
       -0.095821224 0.04762774 -0.06359936 0.06906902
0003c0 6f a2 bb 3d 37 d9 aa 3d ab 7c f8 3b 8d c7 88 3d
       0.09161841 0.08342212 0.007583221 0.06678686
0003d0 32 8d 12 be dc 82 e6 bc 9f 44 95 bd 23 0a 87 be
       -0.14311674 -0.02813857 -0.07288479 -0.2637492
0003e0 70 61 62 3e 54 c6 a0 bd 33 76 51 be ff 91 03 3e
       0.22107482 -0.07850328 -0.20455246 0.12848662
0003f0 93 4b 4f 3e 93 30 6b 3e b1 38 30 bd c1 21 3f 3e
       0.20243673 0.22967748 -0.043022815 0.1866522

bias f4 [10]
000000 c7 92 a8 bc c2 67 57 3d 4f ff 10 3d 00 c6 12 3b
       -0.020577801 0.052589186 0.03539973 0.002239585
000010 a5 98 75 bd d3 ec a3 3d ad 88 f6 bd af 53 c1 3d
       -0.059960026 0.08004155 -0.120377876 0.094397895
000020 93 63 a7 bb ab 91 80 3d
       -0.0051083057 0.06277784
