model/mnist_cnn.pth (torch_old, 266458 bytes, 10 tensors)

weight f4 [6, 1, 5, 5]
0	0x3d2f58ec	0.042809412
1	0x3df89c93	0.12139239
2	0xbe7040de	-0.23462245
3	0xbe3d2dfc	-0.18474573
4	0xbcc03091	-0.023460658
5	0x3e08449e	0.13307425
6	0xbd54027d	-0.051760186
7	0xbd203997	-0.039117422
8	0xbe3545e3	-0.17702441
9	0xbd2dafd7	-0.042404022
10	0x3dcb544f	0.0992819
11	0xbcb9185a	-0.02259462
12	0xbeb3dd2f	-0.35129687
13	0xbe9efb47	-0.31051084
14	0xbe5ef0cf	-0.21771549
15	0x3e8ec2e5	0.27883068
16	0x3eaaab61	0.33333877
17	0x3e8ef99a	0.27924806
18	0xbd91519e	-0.07095645
19	0xbda2d00d	-0.07949839
20	0x3e6a4fa3	0.22881941
21	0x3ee83931	0.45356134
22	0x3eb844b8	0.35989928
23	0x3ef368c0	0.47540855
24	0x3e62ece8	0.22160685
25	0xb9bc588e	-0.00035924133
26	0x3e247a90	0.16062379
27	0xbe47005f	-0.19433735
28	0xbe0ab72e	-0.1354644
29	0xbd801293	-0.06253543
30	0xbdae81ad	-0.085208274
31	0x3e1b91ba	0.15192309
32	0xbe1c2cd0	-0.1525147
33	0xbdebf6a5	-0.11521653
34	0xbe2f43d4	-0.17115718
35	0xbe350598	-0.17677915
36	0xbe0dd26c	-0.13849801
37	0x3e07f8b2	0.13278463
38	0x3d285e98	0.041105837
39	0x3d6fe6ff	0.058569904
40	0x3ca6ce9f	0.020362196
41	0xbe05ce52	-0.13066986
42	0xbc1e17b6	-0.009649208
43	0xbe64da44	-0.22348887
44	0xbe2b7189	-0.16742529
45	0xbda866a4	-0.08222702
46	0x3e0a43cb	0.13502423
47	0x3df3ad9b	0.11898347
48	0xbdd05a56	-0.1017348
49	0xbcd6d6f3	-0.026225543
50	0x3e058b64	0.13041455
51	0x3e863d0a	0.26218444
52	0x3e325dd0	0.17418599
53	0x3e5c5345	0.2151614
54	0x3e9dba02	0.30805975
55	0xbe132887	-0.14370929
56	0x3db9a606	0.090648696
57	0x3d0f78f8	0.035027474
58	0x3e3d4691	0.1848395
59	0x3e4c00ce	0.19922182
60	0x3c75d8bd	0.015005288
61	0x3e03a10c	0.12854403
62	0x3e2cc0e2	0.16870454
63	0x3f2291f9	0.63503987
64	0x3f2173b0	0.6306715
65	0xbe06c2f7	-0.1316031
66	0x3d60d80a	0.05489353
67	0x3ede602a	0.43432742
68	0x3f6fadc2	0.9362451
69	0x3f59e6c4	0.85117745
70	0xbea98958	-0.33112597
71	0xbd5e2343	-0.054232847
72	0x3ebdd0d7	0.37073395
73	0x3f29bd81	0.66304785
74	0x3f0ee947	0.558247
75	0x3e57e3f9	0.21083058
76	0x3defd630	0.11710775
77	0xbe08c5c9	-0.13356699
78	0xbaacc35e	-0.0013180783
79	0xbe47e2e0	-0.1952014
80	0xbdc0a0c4	-0.094056636
81	0x3e9876fb	0.29778275
82	0x3e44364e	0.1916134
83	0xbe860af7	-0.2618024
84	0xbd936ef9	-0.07198901
85	0x3dcb1cd1	0.09917606
86	0x3e0856bd	0.13314338
87	0xbd92011c	-0.07129118
88	0xbd02b3fe	-0.031909935
89	0xbe803c14	-0.25045836
90	0x3e162595	0.14662774
91	0x3e2bb64d	0.16768761
92	0x3da100ac	0.07861456
93	0xbd4cd96a	-0.05001203
94	0xbe8cbab7	-0.27486202
95	0xbcce1b93	-0.025159633
96	0x3e3aacdd	0.18230005
97	0xbc10bea2	-0.008834513
98	0xbe6bae22	-0.23015645
99	0xbe0d56f0	-0.13802695
100	0x3e9047b8	0.28179717
101	0x3e7042eb	0.23463027
102	0xbd185d8a	-0.03719858
103	0xbdda933c	-0.10672614
104	0xbe91f11a	-0.28504258
105	0x3c238558	0.009980522
106	0xbdc93f73	-0.09826555
107	0xbda4acfb	-0.08040806
108	0xbb9b202f	-0.004734061
109	0x3ce73cea	0.028227288
110	0xbe068b47	-0.13139068
111	0x3e38947b	0.18025391
112	0x3d1b2304	0.03787519
113	0x3e9ef49c	0.31045997
114	0x3e97f180	0.29676437
115	0xbe69db2b	-0.22837512
116	0xbd11e915	-0.035622675
117	0x3dc11555	0.09427897
118	0x3d56f61f	0.052480813
119	0x3ddac636	0.10682337
120	0x3ddfb0ce	0.10922395
121	0x3c2455cf	0.010030224
122	0xbe1eeb4d	-0.15519448
123	0xbd4ef91c	-0.050530538
124	0xbe8730c8	-0.26404405
125	0xbe51aa46	-0.2047511
126	0xbe7fabee	-0.2496793
127	0xbea89520	-0.32926273
128	0xbe8cb374	-0.27480662
129	0xbe4afe2e	-0.19823524
130	0xbdb81796	-0.08988874
131	0xbe18e56d	-0.14931269
132	0xbe85c426	-0.26126212
133	0x3dc4e2f0	0.096135974
134	0x3ebb5e13	0.3659521
135	0x3de3aea5	0.11117295
136	0x3db3cbca	0.08779104
137	0x3e85c28b	0.26124987
138	0x3ee2d27f	0.4430122
139	0x3edd6c95	0.43246904
140	0x3ef263c0	0.47341728
141	0x3ef6072f	0.48052356
142	0x3f08d0f8	0.5344386
143	0x3e779c63	0.2418075
144	0xbdac5079	-0.084137864
145	0x3d5a26e0	0.05325973
146	0x3e8d3d7f	0.2758598
147	0x3c8d6254	0.0172588
148	0xbe2e4782	-0.17019466
149	0xbe6fbf06	-0.23412713

bias f4 [6]
0	0xbdb4af77	-0.0882253
1	0xbe116eaf	-0.14202379
2	0x3e9bdd90	0.30442476
3	0x3e0be06f	0.13659833
4	0x3df214d2	0.118203774
5	0xbd85ce9b	-0.065335475

weight f4 [16, 6, 5, 5]
0	0x3d427bb8	0.04748127
1	0xbdc5f5f9	-0.09666056
2	0xbc9c25be	-0.019060966
3	0xbcdf8d5b	-0.027289083
4	0xbd78ffaf	-0.060790714
5	0xbd5f9f36	-0.054595195
6	0xbdebf919	-0.11522121
7	0xbdc237cf	-0.09483301
8	0xbd43175b	-0.047629695
9	0xbd48ab13	-0.048991274
10	0xbdbb3819	-0.09141559
11	0xbd3f61e6	-0.046724223
12	0xbdffbe18	-0.124874294
13	0xbd12c704	-0.035834327
14	0x3d0a3334	0.033740237
15	0xbda9f617	-0.08298891
16	0xbac2c12b	-0.0014858594
17	0xbba8cabd	-0.0051511214
18	0xbd8f09ec	-0.06984314
19	0x3d4cdcb9	0.050015185
20	0xbd603ecb	-0.054747384
21	0xbd8731ea	-0.06601317
22	0x3daa6aea	0.083211735
23	0xbd03dd77	-0.032193627
24	0x3cc16442	0.023607377
25	0xbc5cfe24	-0.013488326
26	0x3d853f4f	0.06506216
27	0x3cf06660	0.029345691
28	0x3d10e1fe	0.035371773
29	0x3cb40799	0.02197628
30	0xbc8483dd	-0.016176159
31	0xbc7a7944	-0.015287701
32	0xbd8cc8c8	-0.068742335
33	0x3d1f69b9	0.038919184
34	0x3d88e3fa	0.06684108
35	0x3d6c6746	0.057715677
36	0xbd7dad88	-0.06193307
37	0x3b2c61a2	0.002630331
38	0xbd5d1fcd	-0.053985406
39	0xbd267a5a	-0.040644027
40	0xbd424cba	-0.047436453
41	0x3cced6fc	0.025248997
42	0xbd1e5e06	-0.038663886
43	0x3b403108	0.00293261
44	0xb9d229c8	-0.0004008545
45	0x3d5d0d7c	0.053967938
46	0xbd7194b4	-0.058979705
47	0xbd396baa	-0.045268692
48	0xbd3a93cc	-0.045551106
49	0x3d597448	0.05308941
50	0xbe008328	-0.12550032
51	0x3db03738	0.08604282
52	0x3e35b66f	0.17745374
53	0x3d1e03d0	0.038577855
54	0xbcc8284c	-0.024433278
55	0xbc956433	-0.018236255
56	0x3e68c1dc	0.22730201
57	0x3e0185a9	0.12648644
58	0xbe00d5fb	-0.12581627
59	0xbd865623	-0.06559398
60	0x3daf2f3c	0.08553931
61	0x3e242fa0	0.16033792
62	0x3cfdc8bf	0.030979512
63	0xbe810106	-0.25196093
64	0x3ceeae3e	0.02913582
65	0x3e34688a	0.17618003
66	0x3d173d06	0.03692343
67	0xbdff4f02	-0.124662414
68	0xbe06c35c	-0.13160461
69	0x3dd51129	0.10403664
70	0xbd96e27d	-0.07367418
71	0xbdfe0c66	-0.124047086
72	0xbd86594f	-0.06560003
73	0x3d19c628	0.037542492
74	0x3dd618e9	0.1045397
75	0x3d3fab1a	0.046794035
76	0x3c00f8d1	0.007871822
77	0x3ddd3842	0.10801746
78	0x3db7bb7c	0.08971307
79	0xbd3a859d	-0.04553758
80	0x3c7e4d10	0.015521303
81	0xbd6fa8da	-0.05851064
82	0x3cba961a	0.022776652
83	0x3db0f9a2	0.08641364
84	0x3d07134f	0.0329774
85	0x3d236f12	0.039900847
86	0xbcb45914	-0.022015132
87	0x3d792933	0.060830306
88	0x3dc29d85	0.09502701
89	0xbdade22a	-0.08490403
90	0x3d4ba291	0.049715582
91	0xbd4b2262	-0.049593337
92	0x3d45c7f6	0.0482864
93	0x3c1088fa	0.00882172
94	0xbd51f15d	-0.051255573
95	0x3ccb42be	0.024812099
96	0x3dab8072	0.083741084
97	0xbc310c65	-0.010806178
98	0xbd592664	-0.053015128
99	0xbd13fcf2	-0.0361299
100	0xbdb27e64	-0.08715513
101	0x3b8b0ba8	0.004243333
102	0xbd65e68f	-0.05612808
103	0xbd89bdb9	-0.0672564
104	0xbd946b4d	-0.072470285
105	0x3c80e702	0.015735153
106	0x3d62c1c2	0.055360563
107	0x3d959413	0.073036335
108	0xbc3c2e93	-0.0114857135
109	0xbd501e0b	-0.0508099
110	0xbbf601c1	-0.0075075333
111	0x3d38c07d	0.045105446
112	0x3d1f9e62	0.038969405
113	0x3c552662	0.013009639
114	0xbccbd999	-0.024884032
115	0xbd277106	-0.040879272
116	0xbdbaebb1	-0.09126986
117	0x3c828e4d	0.015936995
118	0xbcfd1452	-0.030893479
119	0xbd9a2625	-0.07526807
120	0x3d4d5061	0.050125483
121	0xbd8b1343	-0.06790783
122	0x3c38913f	0.011265098
123	0x3d0e8c96	0.034802042
124	0x3c01ff92	0.007934468
125	0xbd8fd141	-0.07022334
126	0xbe0cb29f	-0.13740014
127	0x3c2881e4	0.010284875
128	0x3cc97065	0.024589727
129	0x3d6f6227	0.058443215
130	0xbd899885	-0.06718544
131	0x3cc4426f	0.02395746
132	0x3d78003e	0.060547106
133	0x3c99a7ea	0.018756825
134	0xbe04df52	-0.12975815
135	0x3d975a8c	0.07390317
136	0x3e0297d0	0.12753224
137	0x3d30e277	0.043184724
138	0xbdca9cd0	-0.09893191
139	0xbdffdcb2	-0.12493266
140	0x3e12ffda	0.14355412
141	0xbd2fc82a	-0.0429155
142	0xbcbd9390	-0.023141652
143	0xbdc128c0	-0.094316006
144	0xbd4fa68d	-0.050695945
145	0x3cc0fd4e	0.023558285
146	0xbdc4fbb6	-0.096183226
147	0xbd0a8b74	-0.0338244
148	0x3d15b515	0.036549646
149	0xbc5d628b	-0.013512264
150	0xbcdaec8c	-0.026724122
151	0x3c4398f4	0.011938322
152	0x3c2bba32	0.010481404
153	0xbc0ae115	-0.008476515
154	0xbd8a0bb8	-0.067405164
155	0xbcaadbaf	-0.020856706
156	0xbc546489	-0.012963423
157	0xbdb9af32	-0.09066619
158	0xbbe84894	-0.00708873
159	0x3c821777	0.01588033
160	0x3d950d07	0.072778754
161	0x3daf520a	0.085605696
162	0x3d086edb	0.033308845
163	0xbccb8596	-0.024843972
164	0xbd22e01c	-0.03976451
165	0x3dc0f864	0.09422377
166	0x3dac9167	0.08426171
167	0x3e06c054	0.13159305
168	0x3e3a9107	0.18219386
169	0x3e204284	0.15650374
170	0x3d3a7b55	0.045527775
171	0x3d314c70	0.043285787
172	0x3d867f5b	0.0656726
173	0x3ccb0e7e	0.024787184
174	0x3b27c7ca	0.0025601261
175	0xbd8b7109	-0.06808669
176	0x3da5e791	0.081008084
177	0x3d4b02e5	0.049563307
178	0xbd77a9aa	-0.06046454
179	0x3d035895	0.0320669
180	0x3d88cfc5	0.06680254
181	0x3db1d6af	0.08683526
182	0x3d9a4127	0.07531958
183	0x3d87f5f6	0.0663871
184	0xbca99a1b	-0.020703366
185	0xbc78ef7d	-0.015193817
186	0x3dad2f64	0.08456305
187	0x3d612ff4	0.054977372
188	0xbd38dbf6	-0.045131646
189	0x3d96ee94	0.07369724
190	0x3d2ef177	0.042710748
191	0x3d5891b8	0.052873343
192	0xbd2cff82	-0.04223586
193	0x3cfe890b	0.031071207
194	0xbcbc1080	-0.022957087
195	0x3d835f62	0.06414677
196	0xbc0c6d1a	-0.008570934
197	0x3d01e66e	0.031713895
198	0x3c84d0ec	0.016212903
199	0x3d13395b	0.03594337
200	0xbd56904a	-0.0523837
201	0x3dcabc8d	0.098992445
202	0xbb235d93	-0.00249276
203	0x3d322f12	0.04350192
204	0x3d369431	0.04457492
205	0xbe75df18	-0.24010885
206	0xbe4cbb1f	-0.19993256
207	0x3c84a535	0.016192058
208	0x3da7e917	0.08198755
209	0x3e0e0aa3	0.13871245
210	0xbd0c1cd0	-0.034207165
211	0xbe91ef05	-0.2850267
212	0xbe8f5684	-0.27995694
213	0xbe30c5f1	-0.17263009
214	0xbe1347fa	-0.14382926
215	0x3e5abe43	0.21361642
216	0x3b21d7a1	0.0024695175
217	0xbd7a3421	-0.06108487
218	0xbe076a9a	-0.13224259
219	0xbe0de768	-0.13857806
220	0x3e5d83e6	0.21632347
221	0x3e4e9142	0.20172599
222	0x3e28141a	0.16413918
223	0x3e23eddc	0.16008705
224	0x3e13a0f6	0.1441687
225	0xbd39cab9	-0.045359347
226	0x3d1b3332	0.03789062
227	0x3db07f10	0.08617985
228	0x3d324738	0.04352495
229	0x3da57a73	0.08079996
230	0x3cdaf976	0.02673028
231	0x3d395045	0.045242567
232	0xbcc3367d	-0.023829693
233	0x3d4477ba	0.047965743
234	0x3bbf9dff	0.005847692
235	0xbd03e74d	-0.032203007
236	0xbd4f064b	-0.05054311
237	0xbd846dd7	-0.06466263
238	0xbd980b46	-0.07424025
239	0x3d23917e	0.039933674
240	0x3d255230	0.040361583
241	0xbc69da64	-0.01427326
242	0xbd834bd6	-0.06410949
243	0x3d271319	0.040789697
244	0x3ccdafab	0.02510818
245	0xbb0b7c60	-0.002128385
246	0xbcc72ca9	-0.024313288
247	0x3d9ccb1c	0.076559275
248	0x3c9a54a1	0.018839182
249	0xbdb63907	-0.08897596
250	0x3da9586f	0.082688205
251	0x3d8e55cc	0.06949958
252	0xbce3a9cf	-0.027790932
253	0x3d2e7c62	0.04259909
254	0xbd2cac33	-0.04215641
255	0xbc920d0a	-0.017828483

bias f4 [16]
0	0xbd8e4499	-0.06946678
1	0xbbd2553e	-0.006418853
2	0xbbf49e83	-0.007465185
3	0xbd252b9d	-0.040324796
4	0xbd85bdf4	-0.06530371
5	0xbd296590	-0.041356623
6	0x3d853f65	0.06506232
7	0xbc73268f	-0.014840736
8	0x3c99e740	0.018787026
9	0x3d3e774a	0.04650048
10	0xbd6f903e	-0.05848717
11	0x3cce469d	0.025180155
12	0x3d839b02	0.0642605
13	0xbd0c296f	-0.0342192
14	0x3c7bc280	0.015366197
15	0xb9264ab0	-0.00015858817

weight f4 [120, 16, 5, 5]
0	0x3ce728ec	0.028217755
1	0x3d333414	0.043750837
2	0x3c2f0d24	0.010684285
3	0xbc9dc871	-0.019260617
4	0xbd648b6f	-0.055797037
5	0x3cbbc723	0.022922104
6	0x3d17b11a	0.03703413
7	0xbc397f65	-0.011321877
8	0xbd6448b0	-0.055733383
9	0x3ce60ff4	0.028083779
10	0xbc0c8deb	-0.008578758
11	0x3b82d504	0.0039926786
12	0xbc160b18	-0.009157918
13	0x3cc62fb1	0.024192663
14	0x3d6657f5	0.056236226
15	0x3d43de23	0.047819268
16	0xbc8dca02	-0.017308239
17	0x3d09c699	0.033636663
18	0x3d1536ee	0.03642934
19	0x3c6d6dc8	0.014491506
20	0xbd022f90	-0.03178364
21	0xbcd1a174	-0.025589682
22	0xbd786efb	-0.060652714
23	0x3c7a54e4	0.015279029
24	0x3d5408f4	0.05176635
25	0x3cc317fa	0.023815144
26	0xbb32556a	-0.0027211555
27	0xb960a8e7	-0.00021425226
28	0x3d8a0e2b	0.067409836
29	0xbc19003e	-0.009338437
30	0xbcfe8f90	-0.031074315
31	0xbd3dd758	-0.046347946
32	0xbc3b2905	-0.011423354
33	0xbc50b6e9	-0.012738922
34	0x3b7ab3e7	0.0038254203
35	0xbd3998d5	-0.045311768
36	0x3b307c69	0.0026929623
37	0xbd241b12	-0.04006488
38	0xbd72235b	-0.05911575
39	0xbba762ca	-0.005108212
40	0xbd5d3d4d	-0.05401354
41	0x3c02018e	0.007934941
42	0xbc988618	-0.018618628
43	0xbc9e64f6	-0.019335251
44	0xbc58aa86	-0.01322425
45	0xbd54f663	-0.051992785
46	0x3cd79633	0.026316738
47	0x3d04c3b9	0.03241322
48	0xbcc6f8a7	-0.024288489
49	0x3c55314c	0.013012242
50	0x3d02e3db	0.03195558
51	0x3d0c48c7	0.034249093
52	0xb8d27961	-0.00010036189
53	0xbd537bad	-0.05163162
54	0x3d0034bd	0.031300295
55	0xbcea216d	-0.028580392
56	0x3c3ac52f	0.011399551
57	0x3c2dfda2	0.010619553
58	0xbca25dd1	-0.019820126
59	0xbca8cd07	-0.020605577
60	0xbcfc0b48	-0.030767098
61	0x3c783f4f	0.015151813
62	0xbc76af55	-0.015056451
63	0x3d0dcf16	0.03462132
64	0xbbbf995d	-0.0058471397
65	0x3d24411b	0.040101152
66	0x3be3dfd7	0.006954174
67	0xbd05431c	-0.032534704
68	0xbc072f00	-0.008250952
69	0xbb5c3b24	-0.0033604586
70	0x3a74f0f6	0.00093437673
71	0xbbcc7f37	-0.006240751
72	0x3c91a364	0.017778106
73	0x3d22cce8	0.039746195
74	0x3bd25317	0.0064185965
75	0x3c5ce249	0.013481685
76	0x3cd78459	0.026308225
77	0x3c9ed514	0.019388713
78	0x3d0b2f34	0.033980563
79	0x3d3d2ae6	0.04618349
80	0x3d6196ed	0.055075575
81	0xbd2b6cd3	-0.04185183
82	0x3d0f8618	0.03503999
83	0x3c6fe93e	0.014643012
84	0x3c9d1293	0.019173896
85	0x3c972798	0.018451497
86	0x3cfa43d8	0.030549929
87	0x3d38e48a	0.045139827
88	0xbcd1c415	-0.025606195
89	0x3cb70bb3	0.022344446
90	0x3d8095ca	0.0627857
91	0x3c97a685	0.01851202
92	0xbcda3369	-0.026635842
93	0x3c8334b6	0.016016345
94	0xbc2ea22c	-0.010658782
95	0xbc0ab082	-0.008464934
96	0x3cc1b9b1	0.023648115
97	0x3c9a3552	0.018824253
98	0xbb0b6c40	-0.0021274239
99	0xba85f7bd	-0.0010220926
100	0x3c801b54	0.015638031
101	0x3b6492dd	0.0034877576
102	0xbd242381	-0.04007292
103	0x3cd09eff	0.02546644
104	0x3d3094f3	0.0431108
105	0xbccfd9a8	-0.025372341
106	0xbca18587	-0.019716991
107	0xbb3d26e6	-0.0028862297
108	0xbd5b5081	-0.05354357
109	0xbca23597	-0.019800944
110	0xbd4c4ae1	-0.049876098
111	0x3c6af8e8	0.01434157
112	0xbd9949f3	-0.07484808
113	0x3cb12105	0.02162219
114	0xbd61aa38	-0.055093974
115	0xbc1bdab1	-0.009512589
116	0x3c890a8c	0.016728662
117	0xbc426a8d	-0.011866224
118	0x3d6e00cb	0.058106225
119	0x39c1040c	0.00036814844
120	0xbcc04887	-0.023472084
121	0x3c945d27	0.018110825
122	0x3cf0a4cf	0.029375462
123	0xbbf80410	-0.0075688437
124	0x3d2b803f	0.041870352
125	0xbcd47d24	-0.025938578
126	0x3c884c8e	0.016638067
127	0x3d032d8f	0.03202587
128	0x3d2a4a0c	0.041574523
129	0x3b7dec75	0.0038745676
130	0xbc339701	-0.010961295
131	0xbd2156db	-0.039389472
132	0xbd136f09	-0.035994563
133	0xbc6877ca	-0.014188716
134	0xbb2a7cd0	-0.0026014335
135	0x3ce6a15d	0.028153116
136	0x3cbf7989	0.023373382
137	0x3c298734	0.010347176
138	0xbd1bd355	-0.03804334
139	0xbd4720bf	-0.048615213
140	0xbd47a12c	-0.04873769
141	0x3cc5f55c	0.024164848
142	0xbcea79f2	-0.028622601
143	0xbd6021fe	-0.054719917
144	0xbcde1fff	-0.027114866
145	0xbd273d5b	-0.040829998
146	0xbc9118f7	-0.0177121
147	0xbc83fdad	-0.016112173
148	0xbce40481	-0.027834179
149	0x3d58162f	0.05275553
150	0xbc1ab77c	-0.00944316
151	0x3d29b48f	0.04143196
152	0x3a8c17ef	0.0010688285
153	0xbc05ff37	-0.008178524
154	0xbc6d9bbd	-0.014502463
155	0xbd12ac36	-0.035808764
156	0xbd24938a	-0.040179767
157	0x3d0ea8a6	0.034828804
158	0xbc84539b	-0.016153147
159	0xbd3eb3e2	-0.04655827
160	0x3d3ba40d	0.045810748
161	0x3a736266	0.0009284377
162	0xbd08d1f1	-0.03340334
163	0xbd210027	-0.039306786
164	0xbd28b9fc	-0.041192994
165	0xbd33aae2	-0.04386414
166	0x3d395c60	0.04525411
167	0x3d0da33e	0.034579508
168	0x3b6e2c43	0.00363423
169	0xbd2afdea	-0.041746058
170	0xbc542995	-0.012949367
171	0xbd40c1e5	-0.047059912
172	0x3c8cfc3f	0.017210124
173	0xbc539169	-0.012913086
174	0xbc4aab98	-0.012370013
175	0xbc2a9cc7	-0.010413355
176	0x3cd31335	0.025765995
177	0x3cca3c5b	0.024686983
178	0x3ccf3cbd	0.025297517
179	0x3b945069	0.004526187
180	0x3c98a32e	0.018632498
181	0x3c3d1e82	0.011542918
182	0xbd4aecdd	-0.049542297
183	0x3d2c9222	0.04213155
184	0xbccbf814	-0.024898566
185	0x3d3ba1f0	0.045808733
186	0xbcc08ea4	-0.023505516
187	0xbcf0be7c	-0.029387705
188	0x3c6d9afa	0.014502281
189	0xbd3c6941	-0.045998815
190	0x3ce820f4	0.028336026
191	0xbd123484	-0.035694614
192	0x3c990e70	0.018683642
193	0xbc2077d9	-0.009794199
194	0x3d195b7c	0.037440762
195	0x3d43983f	0.047752615
196	0x3c8eb8c8	0.017422095
197	0x3c71af82	0.014751317
198	0xbcc1e227	-0.023667408
199	0x3cbf3f95	0.023345748
200	0xbd11f1d7	-0.035631027
201	0x3ccadc74	0.024763323
202	0xbc083ba2	-0.008314999
203	0x3d0d8155	0.03454717
204	0x3d1e1d25	0.038602013
205	0x3c1a6617	0.009423754
206	0xbbcac99b	-0.006188584
207	0x3c466e0c	0.012111198
208	0xbd0e0ee8	-0.034682184
209	0x3d38ba74	0.04509969
210	0xbd0ca911	-0.03434092
211	0x3ce7714e	0.02825227
212	0x3ca05435	0.019571403
213	0xbcb4c65a	-0.022067238
214	0xbce75740	-0.028239846
215	0x3d2f1df7	0.042753186
216	0xbcece940	-0.028919816
217	0xbc9841dd	-0.018586094
218	0x3c97f597	0.018549724
219	0xbc49ed87	-0.012324697
220	0xbd176868	-0.036964804
221	0xbd1befbc	-0.038070425
222	0xbc5ccc4a	-0.013476441
223	0x3d56ca48	0.052439004
224	0xbd13bcce	-0.03606873
225	0x3cb55a8d	0.022137905
226	0x3cf14e45	0.029456267
227	0xbc95f3bc	-0.018304698
228	0xbcae5bf8	-0.021284088
229	0xbd21c212	-0.03949172
230	0xbb8d1a0b	-0.004306083
231	0xbacada1e	-0.0015476381
232	0xbac40eeb	-0.0014958059
233	0x3c8a26b4	0.016864158
234	0x3c6a6b79	0.01430785
235	0xbcd49e5c	-0.025954418
236	0x3c12d4a8	0.008961834
237	0x3cae2b71	0.021260949
238	0x3c976e13	0.018485105
239	0x3c2029ea	0.009775618
240	0xbcdb352b	-0.02675875
241	0x3d35be79	0.044371102
242	0x3baed4dc	0.0053354334
243	0xbbb3e1f0	-0.0054895803
244	0xbd2a6164	-0.041596785
245	0xbd2cea2f	-0.042215522
246	0x3ae08893	0.0017130546
247	0xbc076abc	-0.008265194
248	0xbcde8e0a	-0.027167339
249	0x3ca46acc	0.020070456
250	0xbc40a54f	-0.011758163
251	0x3c4a25e9	0.01233814
252	0x3d02611c	0.031830892
253	0xbca539e0	-0.020169199
254	0xbc7c82e4	-0.015412066
255	0xbd087cf7	-0.0333223

bias f4 [120]
0	0xbc0288be	-0.007967172
1	0x3d22d8a0	0.03975737
2	0x3d0a8e02	0.033826835
3	0x3c47ef7a	0.012203092
4	0x3cc041dd	0.023468906
5	0xbc79005f	-0.015197842
6	0xbc473e94	-0.012160916
7	0xbc4dc9c9	-0.012560316
8	0x3c9cfcd4	0.019163527
9	0x3c72bd82	0.01481569
10	0xbd20a1ac	-0.039216682
11	0xbb619a1e	-0.0034424136
12	0x3d363425	0.044483323
13	0x3d280821	0.041023377
14	0x3cd326fe	0.025775429
15	0xbb9b0845	-0.0047312104
16	0xbca45da6	-0.020064186
17	0xbcb9b949	-0.022671359
18	0xbb87f567	-0.0041491273
19	0xbbcfa86a	-0.006337215
20	0xbcf9c254	-0.03048817
21	0x3d3ee77b	0.046607476
22	0x3cebad66	0.028769206
23	0x3d1794a5	0.037006993
24	0xbcd5fee5	-0.02612252
25	0x3c898051	0.016784819
26	0x3d1546b5	0.036444385
27	0x3cea2436	0.02858172
28	0x3d1e37b8	0.038627356
29	0xbc3738cb	-0.011182974
30	0xbd1a9a9d	-0.037745107
31	0xbc3d8640	-0.011567652
32	0xbd2b25dd	-0.041784156
33	0x3d21ee76	0.039534055
34	0xbc644b44	-0.01393396
35	0x3cc3f74f	0.023921637
36	0x3cf74427	0.030183865
37	0x3be88df3	0.007097
38	0x3c2862f2	0.010277497
39	0xbd12a7f3	-0.0358047
40	0x3b1a2545	0.002352075
41	0xbab0feaa	-0.001350363
42	0x3be7c53f	0.007073074
43	0x3c8fcaaf	0.017552702
44	0x3c471323	0.012150559
45	0x3d10b602	0.035329826
46	0x3acfa149	0.0015840913
47	0x3d27e564	0.04099025
48	0xbd0e53a6	-0.034747742
49	0xbd1fa956	-0.03897985
50	0x3c8d24d3	0.017229473
51	0x3cfda441	0.030962111
52	0x3d18f4c3	0.037342798
53	0x3d21c1df	0.03949153
54	0x3d602656	0.05472406
55	0x3c829388	0.015939489
56	0xbc9e91bb	-0.0193566
57	0xbcf3f064	-0.029777713
58	0x3c9af30d	0.018914724
59	0x3c82e0f8	0.015976414
60	0x3cecd4bb	0.028910032
61	0xbba9a65d	-0.0051773028
62	0xbbe4a265	-0.0069773667
63	0x3c86bb5f	0.016446767
64	0x3ca6e610	0.020373374
65	0xbc3b32fb	-0.011425729
66	0xbc2516c3	-0.010076228
67	0x3cd7dcd3	0.026350414
68	0xbb8d3d28	-0.004310269
69	0x3cae0103	0.021240717
70	0xbd3431e1	-0.04399288
71	0x3d2c2070	0.042023122
72	0xbcb48db5	-0.022040227
73	0xbd0dfe3e	-0.034666292
74	0x3bc4a438	0.0060010217
75	0x3b7263ec	0.0036985828
76	0xbb1aef21	-0.0023641067
77	0xbd3d654f	-0.046239194
78	0xbbf370c7	-0.0074292156
79	0x3d2dd205	0.04243662
80	0x3cc51ddf	0.024062095
81	0x3c39bcae	0.011336489
82	0x3d2bac96	0.041912638
83	0xb6a6dcdd	-4.9728974e-06
84	0xbd29950e	-0.041401915
85	0xbc31db94	-0.010855574
86	0xbcf2cf9f	-0.029640017
87	0xbbbd9947	-0.0057860943
88	0x3ce1e6ab	0.027575811
89	0x3d47865a	0.048712112
90	0x3bd54928	0.006508965
91	0x3ca03208	0.019555107
92	0x3b6de170	0.0036297701
93	0x3d28abce	0.04117947
94	0x3c36fad6	0.011168202
95	0x3c4836a3	0.012220058
96	0xbcfc0040	-0.030761838
97	0x3bb41c03	0.0054965033
98	0xbd341da0	-0.043973565
99	0x3c8d6ad3	0.017262852
100	0x3c5e19dc	0.01355597
101	0x3cd98364	0.02655191
102	0xbccf0d92	-0.025275026
103	0x3d1b5ae1	0.037928466
104	0x3bb476be	0.0055073192
105	0x3c89cadf	0.01682037
106	0x3ba6bfbe	0.0050887754
107	0x3c9b0f92	0.018928323
108	0x3d1b4cc0	0.03791499
109	0x3d28ab33	0.041178893
110	0xbcf718bd	-0.030163163
111	0xbd100aab	-0.035166424
112	0xbcf55461	-0.029947462
113	0x3c8b8dbc	0.017035358
114	0xbd39eade	-0.045390002
115	0x3b7f1e47	0.0038927959
116	0x3d1dfcbc	0.038571104
117	0x3c662eed	0.014049274
118	0x3b815c8b	0.0039477996
119	0x3d5953f0	0.053058565

weight f4 [84, 120]
0	0xbd2e2a47	-0.042520788
1	0x3de1b70f	0.11021244
2	0xbd90b872	-0.0706643
3	0xbd4206f0	-0.047369897
4	0x3c398f1e	0.011325626
5	0xbd959300	-0.07303429
6	0xbdc389be	-0.095477566
7	0x3e094f85	0.1340924
8	0x3de0470a	0.109510496
9	0x3d2fa832	0.042885013
10	0x3dad7966	0.084704205
11	0xbd81b28a	-0.06332882
12	0xbc4ba497	-0.012429378
13	0x3c836628	0.016039923
14	0xbd09b422	-0.033619054
15	0x3d2b9600	0.041891098
16	0x3db99e3f	0.09063386
17	0x3d9d32c4	0.076756984
18	0xbd51930d	-0.05116563
19	0x3d0ec21f	0.034853097
20	0x3b0e3826	0.0021700948
21	0x3ddefd54	0.10888162
22	0xbd00f76e	-0.031485967
23	0x3d980749	0.074232645
24	0xbdf34287	-0.118779235
25	0x3e15a869	0.14615025
26	0xbdc2785f	-0.09495615
27	0x3df9f11a	0.122041896
28	0x3d67ce14	0.056593016
29	0x3d3c285f	0.04593694
30	0x3c1cc7ec	0.009569149
31	0x3dcbf1f7	0.099582605
32	0xbd1fffac	-0.039062187
33	0x3d41a4b6	0.04727622
34	0xba929f8b	-0.0011186464
35	0x3e0374b6	0.1283749
36	0xbdd35a44	-0.10319951
37	0xbd0fb6ba	-0.03508637
38	0x3d571638	0.052511424
39	0xbd8fb8c1	-0.07017661
40	0x3d187c77	0.037228074
41	0xbd1563ed	-0.03647225
42	0xbd18050e	-0.037114196
43	0x3d7f5981	0.062341217
44	0xbdc7d2c0	-0.09756994
45	0xbb8a720f	-0.0042250226
46	0x3aeb98db	0.0017974632
47	0x3cf3d934	0.029766656
48	0x3cef25fd	0.029192919
49	0x3d25326b	0.040331285
50	0xbde132ef	-0.10996043
51	0x3da24968	0.079241574
52	0xbe013150	-0.12616467
53	0xbd59ddbd	-0.05318998
54	0x3e0f79dd	0.14011331
55	0xbde75cad	-0.112969734
56	0x3d3f36d0	0.046683133
57	0x3db92124	0.09039524
58	0x3e046a8a	0.12931266
59	0x3dff97d7	0.12480133
60	0x3d883d62	0.06652333
61	0x3d9db3af	0.077002876
62	0x3dbeb59a	0.093119815
63	0xbc74b999	-0.014936828
64	0x3d6919b1	0.056909267
65	0xbc9cf183	-0.01915813
66	0xbe048614	-0.12941772
67	0xbdf308dd	-0.11866925
68	0xbb8eed8e	-0.004361815
69	0x3d58159f	0.052754994
70	0x3dd2c135	0.102907576
71	0xbdc953b3	-0.098304175
72	0xbd4435cb	-0.047902863
73	0xbd026bd0	-0.0318411
74	0x3d946a38	0.07246822
75	0x3def3b7f	0.1168127
76	0xbcc8249c	-0.02443152
77	0xbbfd74c0	-0.007734865
78	0xbd639e20	-0.05557072
79	0xbd75cb0c	-0.060008094
80	0xbcb9fa39	-0.022702323
81	0x3bab8cf6	0.0052353097
82	0x3dbce7c5	0.09223894
83	0x3d0e52e7	0.03474703
84	0xbcdee350	-0.027208
85	0xbd81ff07	-0.06347471
86	0xbdbadaf8	-0.09123796
87	0x3df249df	0.11830496
88	0x3a17ac3c	0.0005785858
89	0x3d38d17f	0.045121666
90	0xbdae2967	-0.085039906
91	0x3d8a0512	0.06739248
92	0x3c33be07	0.010970599
93	0x3d92947f	0.0715723
94	0xbda79fc1	-0.081847675
95	0x3cddcd41	0.027075412
96	0x3d9b833e	0.07593392
97	0xbdba538a	-0.09097965
98	0xbda42cd6	-0.08016364
99	0x3d074d10	0.033032477
100	0x3c1d464c	0.00959928
101	0xbdac137d	-0.084021546
102	0x3e4dd99f	0.20102547
103	0x3e1529f0	0.14566779
104	0x3e161d3d	0.14659591
105	0x3d5731de	0.05253779
106	0x3dc33a86	0.09532647
107	0xbd1fc97a	-0.039010502
108	0x3d8be7d5	0.06831328
109	0x3d916276	0.07098858
110	0x3c2fcea2	0.010730417
111	0xbc34b121	-0.011028559
112	0xbd5a9912	-0.053368635
113	0xbc87eceb	-0.016592463
114	0xbdb28d36	-0.0871834
115	0xbc3385a4	-0.010957155
116	0xbd3ebd9f	-0.046567556
117	0xbdb02441	-0.08600665
118	0x3c76d489	0.015065321
119	0xbdf72d23	-0.12069156
120	0xbde323f3	-0.11090841
121	0x3b9814d1	0.0046411534
122	0x3c215e4d	0.009849143
123	0x3d802d96	0.06258695
124	0xbcd20d1d	-0.025641019
125	0x3dc308c1	0.09523154
126	0x3dcc6106	0.09979443
127	0xbd2b1e05	-0.041776676
128	0x3e0951bb	0.13410084
129	0x3db93720	0.090437174
130	0xbdf022f7	-0.11725419
131	0xbcd85481	-0.026407482
132	0x3d9eccf6	0.07753937
133	0x3d374f21	0.044753198
134	0x3c8877df	0.016658721
135	0x3c4d7dc7	0.012542195
136	0x3da8be5e	0.08239435
137	0x3c859b0f	0.01630929
138	0xbd2b76e5	-0.041861434
139	0x3d44e8ea	0.048073687
140	0x3c8b7f0f	0.01702836
141	0x3d53fe55	0.05175622
142	0xbd5cb7ab	-0.053886097
143	0x3c0316be	0.008001028
144	0xbd56ab2e	-0.052409343
145	0x3d842ed6	0.06454246
146	0xbdb855cc	-0.090007395
147	0xbd9c76af	-0.076398246
148	0x3d9f38a0	0.07774472
149	0xbca55540	-0.020182252
150	0x3e0bcb52	0.1365178
151	0x3d869de9	0.06573088
152	0xbb9623b9	-0.004581895
153	0xbdb66903	-0.08906748
154	0x3d696023	0.05697645
155	0x3df6735c	0.12033722
156	0x3df410ea	0.119172886
157	0x3b17dcd1	0.0023172388
158	0x3dbf1881	0.093308456
159	0xbd4f64b8	-0.050633162
160	0x3d695ea0	0.056975007
161	0x3d1d5489	0.038410697
162	0xbd0e8766	-0.034797095
163	0x3dae24d6	0.0850312
164	0x3d80ee6c	0.06295475
165	0x3d7c8b89	0.06165651
166	0xbe0b050e	-0.13576147
167	0x3e080b98	0.13285673
168	0xbd9e16a9	-0.07719166
169	0xbc9e4f09	-0.019324796
170	0xbd097445	-0.03355815
171	0x3d6db5b3	0.05803461
172	0xbd42f1cc	-0.047593877
173	0xbd839772	-0.0642537
174	0xbdc3d098	-0.095612705
175	0xbc833644	-0.016017087
176	0x3d0dba00	0.03460121
177	0xbdad0a1d	-0.084491946
178	0x3d66bb0a	0.056330718
179	0xbd26938e	-0.040668063
180	0x3dbef172	0.09323396
181	0xbdcbd564	-0.099528104
182	0xbd25f53d	-0.04051708
183	0xbd2e7a66	-0.042597197
184	0xbcad8da1	-0.021185698
185	0x3dbf7ff1	0.09350575
186	0x3ce9063c	0.028445356
187	0xbd9d3787	-0.076766066
188	0x3c3bab73	0.011454451
189	0xbd4b1151	-0.04957706
190	0x3e07f765	0.13277967
191	0xbd397f93	-0.04528768
192	0xbd2c9efd	-0.04214381
193	0x3d7f1fe8	0.062286288
194	0xbd9ce9f7	-0.07661813
195	0x3d8b4f4b	0.06802233
196	0xbbb3ceee	-0.0054873144
197	0xbd3c9ab3	-0.04604597
198	0x3d206900	0.039162636
199	0xbc464d58	-0.012103401
200	0xbc7f9570	-0.0155995935
201	0xbd345246	-0.044023775
202	0x3d54d00f	0.051956233
203	0xba8ba5c0	-0.0010654256
204	0xbd30eb7e	-0.043193333
205	0xbd9a4a93	-0.07533755
206	0xbcef55b2	-0.029215667
207	0x3d133d52	0.03594715
208	0x3cae9c5a	0.021314789
209	0x3d99f957	0.07518261
210	0xbcb990ec	-0.022652112
211	0x3d8578b5	0.06517164
212	0xbd9f938a	-0.07791813
213	0x3b56f4e3	0.0032799772
214	0x3b0ead10	0.0021770634
215	0xbc1b9c77	-0.009497753
216	0xbb9dbf02	-0.0048140297
217	0x3c1154ee	0.0088703465
218	0x3df45752	0.119307175
219	0xbd83fb2a	-0.0644439
220	0xbddc0175	-0.107424654
221	0x3c5d1a32	0.013495015
222	0xbd3d8afd	-0.046275128
223	0xbd34e9df	-0.04416835
224	0x3dcb58a9	0.0992902
225	0xbd2a6bac	-0.04160659
226	0xbc7e02ba	-0.01550358
227	0x3d5b3751	0.05351955
228	0x3d5c5fd1	0.053802315
229	0xbd86669a	-0.065625384
230	0x3d7e768f	0.062124785
231	0xb9774ef2	-0.00023585165
232	0xbdb5f9a8	-0.08885509
233	0x3dea0311	0.11426366
234	0xbd5ab6d6	-0.053397022
235	0xbd3bd5f4	-0.04585834
236	0x3dd4efa3	0.103972696
237	0xbdd75b53	-0.105154656
238	0x3db26b19	0.087118335
239	0xbc1bebd5	-0.009516676
240	0xbcd60302	-0.026124481
241	0x3daadd26	0.08342962
242	0x3cb9e053	0.022689974
243	0xbd85788f	-0.06517135
244	0xbd797bd0	-0.060909092
245	0xbc8754dc	-0.016519956
246	0x3d85ec20	0.06539178
247	0xbd160d6d	-0.036633898
248	0x3d0e2e5e	0.034712188
249	0x3d9a8ef8	0.075468004
250	0x3d8a94c2	0.067666546
251	0xbcc3122e	-0.02381238
252	0xbd65c799	-0.056098554
253	0xb87d18f1	-6.034313e-05
254	0xbd5a1a10	-0.05324751
255	0xbd53a767	-0.05167332

bias f4 [84]
0	0xbd80df0d	-0.062925436
1	0xbc79f310	-0.0152557045
2	0x3d865cf2	0.06560697
3	0x3cc9be10	0.024626762
4	0xbd86f421	-0.06589533
5	0xbd118cb7	-0.035534587
6	0xbd6b67ff	-0.057472225
7	0x3cfbf97e	0.030758616
8	0x3cf873c3	0.030328637
9	0x3d52da2e	0.051477604
10	0xbd7e330e	-0.06206041
11	0x3d82caf7	0.06386369
12	0x3d1615fe	0.036642067
13	0xbd30b3b2	-0.04314012
14	0x3d86c724	0.06580952
15	0xbd7b0867	-0.06128731
16	0xbd372d91	-0.04472119
17	0xbd87d6f8	-0.06632799
18	0x3cd47a5f	0.025937257
19	0xbdc3f449	-0.09568078
20	0x3d71d37f	0.05903959
21	0x3dc9dda3	0.09856727
22	0x3baa1429	0.0051903916
23	0x3d7ce418	0.061740965
24	0x3d9bfe30	0.07616842
25	0x3c14f9a0	0.009092718
26	0xbd302a7f	-0.043009277
27	0x3d356886	0.044289134
28	0x3da724a7	0.08161288
29	0x3b62ad20	0.0034588054
30	0x3cc7c93d	0.02438795
31	0xbd3c4c5f	-0.04597127
32	0xbd032d03	-0.03202535
33	0x3ce3844c	0.027773045
34	0xbcb1f5c3	-0.021723634
35	0x3d7c2431	0.061557952
36	0x3d9862b9	0.07440705
37	0x3dbf1af1	0.093313105
38	0xbd93f49f	-0.07224392
39	0xbd91d8d0	-0.07121432
40	0x3d011ecb	0.031523507
41	0x3d213cd6	0.03936466
42	0xbdb0e40b	-0.08637246
43	0x3c29185f	0.010320752
44	0xbd957c8b	-0.07299145
45	0x3c8a65d9	0.016894268
46	0x3ccec667	0.02524109
47	0xbc02fddf	-0.007995098
48	0x3d965e92	0.073422566
49	0xbd9f8cc8	-0.07790524
50	0x3b709b55	0.003671368
51	0xbdb63308	-0.08896452
52	0xbd80c51d	-0.062875964
53	0xbd1705cb	-0.03687076
54	0xbdbba17a	-0.091616586
55	0x3d06fa78	0.03295371
56	0x3daa1126	0.08304052
57	0x3dc08055	0.093994774
58	0x3cada283	0.021195656
59	0xbdb766fd	-0.0895519
60	0x3d5dfa32	0.054193683
61	0xbcc3f5bb	-0.023920884
62	0xbd6053a5	-0.05476727
63	0x3c39c8e3	0.011339399
64	0xbce0a0fc	-0.027420513
65	0x3dc32186	0.095278785
66	0xbc98aa36	-0.01863585
67	0x3d6b1df4	0.057401612
68	0x3b2f0716	0.0026707104
69	0x3c244dfd	0.0100283595
70	0x3da08fbe	0.07839917
71	0x3c85f67a	0.01635288
72	0xbd52d439	-0.051471923
73	0xbdaabb1c	-0.083364695
74	0xbcf82a38	-0.030293569
75	0xbd34f9b1	-0.044183437
76	0x3d19f961	0.037591342
77	0xbd27d2fa	-0.040972687
78	0xbd3d1f68	-0.04617253
79	0xbce4e560	-0.027941406
80	0xbc94997c	-0.018139593
81	0xbd25dff1	-0.04049677
82	0x3da5b486	0.08091073
83	0xbd728d10	-0.05921656

weight f4 [10, 84]
0	0xbe5419ce	-0.20712969
1	0x3c3e2284	0.011604909
2	0x3d84f1e2	0.06491448
3	0xbd2f3df6	-0.0427837
4	0xbd89979b	-0.067183696
5	0xbdd3c6e2	-0.10340668
6	0x3da5ebc7	0.081016116
7	0xbd24975b	-0.040183406
8	0xbdf76437	-0.12079661
9	0x3e9f6305	0.31130233
10	0xbdce06e2	-0.100599065
11	0x3de201e1	0.110355146
12	0x3ddf80dc	0.1091325
13	0xbce7f3cc	-0.028314494
14	0xbddc303f	-0.1075139
15	0x3e2cd278	0.16877162
16	0xbcfcbd39	-0.030851947
17	0xbe0d7c03	-0.13816838
18	0x3d89f1f7	0.06735604
19	0x3d49a8c6	0.04923322
20	0xbcd50a2f	-0.026005832
21	0xbce67357	-0.02813117
22	0x3d86a58c	0.06574544
23	0xbda82cfe	-0.082117066
24	0x3da741db	0.08166858
25	0x3e2ebe6f	0.17064832
26	0xbd41c78a	-0.047309436
27	0x3e19d4d9	0.15022601
28	0xbcde7481	-0.027155163
29	0xbe88d213	-0.26722774
30	0x3e0792fc	0.13239664
31	0x3e5ce497	0.21571575
32	0x3d9a5106	0.07534985
33	0xbcf2449e	-0.029573735
34	0x3c822ed8	0.015891477
35	0xbdc229d9	-0.09480638
36	0x3dd9ebe4	0.10640696
37	0xbdb83e12	-0.08996214
38	0xbddf0761	-0.10890079
39	0xbdd5cd22	-0.104395166
40	0x3d7e15cd	0.06203251
41	0x3de25a58	0.11052388
42	0x3d2c5299	0.04207096
43	0xbd9f5c95	-0.077813305
44	0xbcbad528	-0.022806719
45	0xbd6115d2	-0.05495245
46	0xbc11ef5b	-0.008907164
47	0xbc8eaf67	-0.017417623
48	0xbdb41fcf	-0.087951295
49	0xbdff77a7	-0.12473994
50	0xbd340da0	-0.043958306
51	0xbbc00d02	-0.0058609257
52	0x3dd90992	0.105975285
53	0xbe1ac23b	-0.15113156
54	0xbd3557ba	-0.044273116
55	0x3d396af4	0.045268014
56	0xbc6a5afe	-0.014303921
57	0x3cca2576	0.024676066
58	0x3e4b85ec	0.19875306
59	0x3d4ed47b	0.050495606
60	0x3d0cff26	0.034423016
61	0x3d69967a	0.05702827
62	0xbdca934e	-0.098913774
63	0x3d9ba306	0.07599454
64	0x3d9ec718	0.07752818
65	0xbdd19cf3	-0.10235014
66	0x3e062875	0.1310137
67	0x3d6cb2f4	0.05778785
68	0x3e476270	0.19471145
69	0x3d78006e	0.060547285
70	0x3d9c5bfe	0.076347336
71	0xbe8c6162	-0.27418047
72	0x3c5a397d	0.01331937
73	0xbdc1306a	-0.094330624
74	0xbd9535be	-0.07285641
75	0xbce2f542	-0.027704839
76	0xbe04d749	-0.1297275
77	0x3cc2e548	0.02379097
78	0xbe211e1d	-0.15734144
79	0xbdc61598	-0.096720874
80	0xbdb0328a	-0.086033896
81	0x3bf4acb0	0.007466875
82	0xbe1a38af	-0.15060686
83	0x3d1c9d17	0.03823575
84	0xbe147292	-0.1449683
85	0x3d84a2e0	0.064763784
86	0xbd0d7b3f	-0.034541365
87	0xbe212d93	-0.15740041
88	0xbd997f69	-0.07495005
89	0x3dd837ba	0.10557504
90	0x3dc91d17	0.098200016
91	0x3ccc4933	0.024937248
92	0xbdae1c1e	-0.08501457
93	0x3dd0533e	0.10172127
94	0x3d5ff0ae	0.05467289
95	0x3d702237	0.05862638
96	0xbda38f69	-0.07986338
97	0x3dc720d1	0.09723056
98	0x3e4c8b2d	0.19974966
99	0xbe3ee627	-0.18642484
100	0xbe0bd0da	-0.1365389
101	0x3c80b1ec	0.01570984
102	0xbe1d6dfe	-0.1537399
103	0x3c835775	0.016032914
104	0x3d8b179f	0.06791615
105	0x3e455ccd	0.19273682
106	0x3d0bca8a	0.034128703
107	0xbe065864	-0.13119656
108	0xbe012da9	-0.12615074
109	0xbd91421c	-0.070926875
110	0x3e06e354	0.13172656
111	0xbe053b5e	-0.13010928
112	0x3e1950a0	0.14972162
113	0xbc8330c8	-0.016014472
114	0xbdbbf20b	-0.091770254
115	0x3d444a5d	0.04792248
116	0x3d149840	0.03627801
117	0x3dc50981	0.09620953
118	0x3d743914	0.059624746
119	0x3e383bb2	0.17991522
120	0x3e172166	0.14758834
121	0x3e7ace0e	0.24492666
122	0x3d24da4d	0.04024725
123	0xbe3481ed	-0.17627688
124	0xbde8c150	-0.113649964
125	0x3db1e8e4	0.086869985
126	0x3d5b6e0d	0.05357175
127	0x3e178c68	0.14799654
128	0xbdda135e	-0.10648225
129	0x3de0664b	0.10957011
130	0x3e7e9eb9	0.24865235
131	0xbd9698a5	-0.073533334
132	0x3dabd996	0.083911106
133	0x3dc42559	0.09577436
134	0x3e09b2f3	0.1344717
135	0xbdabe8dc	-0.08394024
136	0xbdbe5b21	-0.09294725
137	0xbd3635bd	-0.044484843
138	0x3df025c4	0.11725953
139	0x3e0c80c1	0.1372099
140	0x3ba3292b	0.004979273
141	0x3e4134d4	0.18867809
142	0xbe33e0bb	-0.17566197
143	0x3c972f7c	0.01845526
144	0xbd8af818	-0.067856014
145	0xbd93b213	-0.07211699
146	0xbda298be	-0.079392895
147	0x3b1dbc77	0.0024068633
148	0xbd0b9bcb	-0.034084123
149	0x3e2c7e02	0.16844943
150	0x3d513b71	0.05108208
151	0xbd86c5f9	-0.06580729
152	0x3db98cf8	0.09060091
153	0xbe0e477c	-0.13894457
154	0x3dbc2e15	0.09188477
155	0xbdb0acf5	-0.08626739
156	0xbe8584f1	-0.2607799
157	0xbb180f89	-0.002320262
158	0x3d246fb9	0.04014561
159	0xbd938df3	-0.07204809
160	0x3c7e89b0	0.015535757
161	0x3db4cb5c	0.0882785
162	0x3e287f69	0.16454853
163	0xbe3e2a91	-0.18570925
164	0xbd9d7c46	-0.07689719
165	0xbc2ad682	-0.010427119
166	0xbdbdfa4b	-0.09276255
167	0x3d11e6ce	0.035620503
168	0xbd1fb257	-0.038988438
169	0xbdb9e358	-0.090765655
170	0x3b90e716	0.004422079
171	0xbdc435c0	-0.095805645
172	0x3d8742a0	0.066045046
173	0x3cfe0a14	0.031010665
174	0x3bd3d36e	0.0064644134
175	0x3d648f3b	0.055800658
176	0x3db0c2b6	0.08630888
177	0xbddeac76	-0.10872738
178	0x3dad1579	0.08451361
179	0x3db6e808	0.08930975
180	0x3d55817e	0.052125446
181	0xbae2e227	-0.001730983
182	0xbd607ac7	-0.05480459
183	0xbe4c5561	-0.19954444
184	0x3e189ff0	0.14904761
185	0xbe1be517	-0.1522411
186	0x3e95a77f	0.29229352
187	0xbde006b5	-0.10938779
188	0x3e28279a	0.16421357
189	0xbd303cfd	-0.043026913
190	0xbdbf46a8	-0.093396485
191	0xbe22ad6c	-0.15886468
192	0xbdcd76ce	-0.10032426
193	0xbc8b63b2	-0.017015312
194	0x3e8a58a4	0.27020752
195	0x3d619c4f	0.055080708
196	0x3dddcd46	0.108301684
197	0xba389060	-0.00070405565
198	0x3d97d164	0.07412985
199	0x3d4e31e5	0.050340552
200	0xbcd8c803	-0.02646256
201	0xbd4c61eb	-0.04989807
202	0xbcd873bc	-0.026422374
203	0xbea0b929	-0.31391266
204	0xbe987693	-0.29777965
205	0xbe0dfbed	-0.13865633
206	0x3e005f79	0.1253642
207	0x3e057999	0.13034667
208	0xbd4bab60	-0.049723983
209	0x3d4b5f0b	0.049651187
210	0x3dc4d1f6	0.09610359
211	0xbbf51ec5	-0.0074804747
212	0xbd8e23f4	-0.06940451
213	0x3df99796	0.12187116
214	0x3e1ae851	0.15127684
215	0xbdb21e08	-0.08697134
216	0x3d8dab02	0.06917383
217	0x3d5fa411	0.054599825
218	0x3ca715bc	0.020396106
219	0x3c8ccec3	0.017188435
220	0xbcd56366	-0.026048373
221	0x3e1bc7e7	0.15212975
222	0xbdc974f8	-0.09836763
223	0x3df86487	0.12128549
224	0x3d09e519	0.03366575
225	0xbe4f63e2	-0.20252946
226	0x3e326015	0.17419465
227	0xbdd7ec23	-0.105430864
228	0x3cdb84c8	0.026796713
229	0xbdc0b8b4	-0.09410229
230	0xbe022097	-0.12707745
231	0xbe26f318	-0.1630367
232	0x3e0df3a0	0.13862467
233	0x3dd36439	0.1032185
234	0x3d8d4009	0.06896979
235	0x3d9fe823	0.078079484
236	0xbda4dd0d	-0.080499746
237	0x3d3d1f64	0.046172515
238	0xbd4e313f	-0.050339933
239	0x3d657def	0.056028303
240	0x3d9ec348	0.07752091
241	0x3daae809	0.083450384
242	0x3c5c88b5	0.013460328
243	0x3d936ffb	0.07199093
244	0xbe047aa3	-0.12937407
245	0xbc900a22	-0.017582957
246	0xbda2ea95	-0.07954899
247	0xbe709e08	-0.23497784
248	0x3e52bcb8	0.20579803
249	0xbd83fb9b	-0.06444474
250	0xbe2eec68	-0.1708237
251	0x3df3d0ac	0.119050354
252	0x3e43ecc9	0.19133295
253	0x3e4586bb	0.19289677
254	0xbd20b7a2	-0.039237626
255	0x3e38a64a	0.18032184

bias f4 [10]
0	0xbcbbfca1	-0.022947611
1	0x3d613d0f	0.05498987
2	0x3d1a777d	0.03771161
3	0x3bae166b	0.005312731
4	0xbd7dee5d	-0.0619949
5	0x3da00dba	0.07815118
6	0xbdf78e39	-0.12087674
7	0x3dc2f641	0.095196255
8	0xbc289ad2	-0.010290818
9	0x3d8780bf	0.06616353
