model/mnist_cnn.pth (torch_old, 349396 bytes, 10 tensors)

weight f4 [6, 3, 5, 5]
0	0x3dc59eb1	0.096494086
1	0xbd871e46	-0.06597571
2	0xbe69d229	-0.22834076
3	0xbe36ff2b	-0.17870776
4	0x3d29628b	0.041353744
5	0xbe680a1a	-0.22660103
6	0xbef8492f	-0.48493335
7	0xbec23243	-0.37928972
8	0xbed66108	-0.41870904
9	0xbe6cd3f7	-0.23127733
10	0xbede409e	-0.43408674
11	0xbf080e88	-0.5314717
12	0xbf190454	-0.5977223
13	0xbf036bab	-0.51336163
14	0xbec9d5ea	-0.39421016
15	0xbe63228a	-0.22181144
16	0xbe726b7b	-0.23673813
17	0xbe63517e	-0.22199056
18	0xbea8b41a	-0.32949907
19	0xbe80bf78	-0.2514608
20	0xbc24d933	-0.01006155
21	0x3bfe4ecc	0.007760858
22	0xbe08dbfb	-0.13365166
23	0xbcc55b98	-0.024091527
24	0xbda76fd8	-0.081756294
25	0x3e5aac35	0.21354754
26	0x3e3cc5cf	0.18434833
27	0xbc92500c	-0.017860435
28	0x3cdd983a	0.027050126
29	0x3e1192a9	0.14216103
30	0xbd5167d1	-0.051124398
31	0xbc1eb8a3	-0.0096875755
32	0xbe11bf46	-0.14233121
33	0xbdb5a245	-0.08868841
34	0xbdcd41a1	-0.10022283
35	0xbe216ac1	-0.1576338
36	0xbd87b448	-0.06626183
37	0x3e3bafbd	0.18328758
38	0x3e21cdd2	0.1580117
39	0x3dbd473d	0.09242103
40	0x3d8218da	0.06352396
41	0x3df3e21c	0.11908361
42	0x3e861894	0.26190627
43	0x3e112bb2	0.14176825
44	0x3d2e7878	0.042595357
45	0xbd3db62c	-0.04631631
46	0x3e4e5177	0.20148264
47	0x3e70db17	0.23521076
48	0x3d9d781b	0.07688924
49	0x3c8ba7ee	0.017047849
50	0x3e649794	0.22323447
51	0x3e82c451	0.25540403
52	0x3e6e7a14	0.23288757
53	0x3e5555aa	0.2083346
54	0x3e8c6300	0.2741928
55	0x3b44f5b4	0.0030053677
56	0x3dcf42a4	0.101201326
57	0x3d6bd546	0.05757644
58	0x3dac50d5	0.08413855
59	0x3d581202	0.05275155
60	0x3e3b1b6b	0.18272178
61	0x3ead1852	0.33807617
62	0x3eaaca45	0.33357444
63	0x3ee50eda	0.44737893
64	0x3eaae337	0.33376476
65	0x3e2f39f2	0.17111948
66	0x3ed7d941	0.4215794
67	0x3f09eb5e	0.53874767
68	0x3f14cc19	0.5812393
69	0x3edb1db5	0.42796102
70	0xbd8c35b0	-0.068461776
71	0x3e4094b5	0.18806727
72	0x3eb00cc4	0.3438474
73	0x3eaf030f	0.3418202
74	0x3e409f68	0.18810809
75	0x3dd76d84	0.10518935
76	0x3a5d0264	0.0008430837
77	0xbdee6e96	-0.11642186
78	0xbc809a40	-0.015698552
79	0xbdabeaf8	-0.08394426
80	0xbde73b7e	-0.11290644
81	0x3d8eea46	0.06978278
82	0x3daca47c	0.084298104
83	0xbdf43df8	-0.11925882
84	0x3d3a7855	0.045524914
85	0xbd019c1a	-0.03164301
86	0xbd77c01d	-0.060485948
87	0xbd6529d9	-0.055948112
88	0x3d4c9413	0.049945902
89	0xbd57e657	-0.052709904
90	0x3d477b4c	0.04870157
91	0x3d5cc5cc	0.05389957
92	0x3dcdb9c8	0.100452006
93	0x3cf4e841	0.029895904
94	0xbe0e7177	-0.13910471
95	0xbd2b6372	-0.041842885
96	0x3d9e11df	0.077182524
97	0x3d334cbb	0.043774348
98	0xbdc828b9	-0.09773392
99	0xbda1b85b	-0.07896491
100	0x3e0b6173	0.13611393
101	0x3dae210a	0.085023955
102	0xbd0c85dd	-0.03430735
103	0xbcdfd4d0	-0.027323157
104	0xbdc79530	-0.09745252
105	0x3c47af2e	0.012187762
106	0xbdc068f3	-0.093950175
107	0xbd85a441	-0.065254696
108	0x3c2b9eab	0.010474841
109	0x3d714d79	0.058911774
110	0xbd2c8a82	-0.04212428
111	0x3d510c81	0.051037315
112	0xbd4baaff	-0.04972362
113	0x3e010db2	0.1260288
114	0x3ddd3392	0.10800852
115	0xbd99dde4	-0.075130254
116	0xbc3e92d0	-0.0116316825
117	0x3d3c76dd	0.046011794
118	0x3ca8701f	0.020561276
119	0x3c99bf18	0.018767878
120	0x3dbf046b	0.093270145
121	0x3d3e265c	0.0464233
122	0xbc78bae7	-0.01518128
123	0x3d818e95	0.063260235
124	0xbddc400e	-0.10754405
125	0xbd716bb1	-0.058940593
126	0xbd2b311b	-0.041794877
127	0xbd86ebc9	-0.06587941
128	0xbd9649b2	-0.07338275
129	0xbde92289	-0.1138354
130	0xbd0d2749	-0.034461293
131	0xbc14534b	-0.009053062
132	0xbdabb6d8	-0.08384484
133	0xbcfb9334	-0.03070984
134	0x3db279d9	0.08714647
135	0xbcd37ac2	-0.025815371
136	0xbd18395e	-0.037164085
137	0xbca8acab	-0.020590147
138	0xb96e673b	-0.00022735905
139	0x3d6c9f24	0.057768956
140	0x3df4d6d9	0.119550414
141	0x3d96a335	0.07355348
142	0x3dfaf68e	0.12254058
143	0xbd477a5d	-0.04870068
144	0xbe21bfb7	-0.1579579
145	0xbc854ce1	-0.01627201
146	0x3dd64d7d	0.104639985
147	0x3c78ffd7	0.015197716
148	0xbdb5432b	-0.08850702
149	0xbdfb88fb	-0.12281986
150	0xbdfbe09e	-0.12298702
151	0xbcf573c9	-0.029962437
152	0x3e138369	0.14405598
153	0x3ea2c5ba	0.31791478
154	0x3e390498	0.18068159
155	0xbdbdd879	-0.092698045
156	0x3e7df00d	0.24798603
157	0x3ea8a29a	0.32936555
158	0x3ec0425e	0.37550634
159	0x3e410c71	0.18852402
160	0xbe89b0b9	-0.2689264
161	0xbf0f5152	-0.5598346
162	0xbf3a29e4	-0.7272017
163	0xbf38808d	-0.7207115
164	0xbe9d5fd6	-0.3073718
165	0x3dbf193d	0.09330986
166	0xbe8f7577	-0.28019306
167	0xbec0c84c	-0.37652814
168	0xbf00b2d3	-0.50272864
169	0xbe1ab648	-0.15108597
170	0x3ef0cd6e	0.4703173
171	0x3eda1c03	0.42599496
172	0x3f2398d6	0.63905084
173	0x3efe0258	0.49611163
174	0x3e78cf9a	0.24297944
175	0x3d5b2b90	0.05350834
176	0x3d087b03	0.033320438
177	0x3ded91b3	0.116000555
178	0x3ec3564f	0.38151786
179	0x3d11d6c3	0.035605203
180	0x3ddd9445	0.10819296
181	0x3e5182fc	0.20460123
182	0x3f14cae7	0.58122104
183	0x3f0a95b4	0.5413468
184	0x3ebeb78c	0.3724941
185	0xbe2f4709	-0.17116942
186	0xbf0acbc2	-0.5421716
187	0xbf1bbcca	-0.60834944
188	0xbf262409	-0.64898735
189	0xbe2872d1	-0.16450049
190	0x3dec4bec	0.115379184
191	0xbe4b3a21	-0.19846393
192	0xbf07c5bd	-0.530361
193	0xbeca3840	-0.3949604
194	0xbe6e1f76	-0.23254189
195	0x3e08b236	0.13349232
196	0x3e947a17	0.28999397
197	0x3efe9491	0.49722722
198	0x3ea1440f	0.31497237
199	0x3e7bb6f6	0.24581513
200	0xbdc6575e	-0.09684633
201	0xbcf2e207	-0.029648794
202	0xbe3fec68	-0.18742526
203	0xbe3e6f68	-0.18597186
204	0xbe90e345	-0.28298393
205	0x3e5e044b	0.21681325
206	0x3e5d3316	0.21601519
207	0x3f0d2d89	0.55147606
208	0x3ed17489	0.40909222
209	0x3e3c3d33	0.1838272
210	0xbde4a89c	-0.11164972
211	0xbeba529e	-0.36391157
212	0xbebdc103	-0.3706132
213	0xbedfbfe2	-0.43701082
214	0xbe344f19	-0.17608298
215	0x3d66f9b5	0.056390483
216	0xbe8e57b5	-0.2780129
217	0xbebf1f74	-0.37328684
218	0xbe541357	-0.20710503
219	0xbe626dc7	-0.22112189
220	0x3de2bf9f	0.11071705
221	0x3ed0a238	0.40748763
222	0x3ee3db21	0.4450312
223	0x3ea691b0	0.32533026
224	0x3d8f422d	0.06995044
225	0x3e0e5d33	0.1390274
226	0x3c3bd890	0.011465207
227	0x3d8158a9	0.06315739
228	0x3dcea31d	0.10089705
229	0x3dc5f37e	0.09665583
230	0x3dfd583b	0.12370344
231	0x3ed70311	0.41994527
232	0x3edb5c65	0.4284393
233	0x3f0fa7ab	0.56115216
234	0x3ef1ee6a	0.47252208
235	0x3cd00db4	0.02539716
236	0x3ef8b228	0.48573422
237	0x3ede80e7	0.4345772
238	0x3ee5a7d7	0.44854614
239	0x3ee248cd	0.44196168
240	0x3e0fdca2	0.14049008
241	0x3f04cbb7	0.51873344
242	0x3ecf3b48	0.40474916
243	0x3ee512bd	0.4474086
244	0x3ed2c78f	0.41167876
245	0xbe6db673	-0.2321413
246	0x3e4fcfe7	0.20294152
247	0xbcd3dc51	-0.025861891
248	0x3d911c0f	0.0708543
249	0x3c4a8c4f	0.012362554
250	0xbecce15b	-0.40015683
251	0xbeadd301	-0.33950046
252	0xbe5f8926	-0.21829662
253	0xbe95fa01	-0.292923
254	0xbeabe56c	-0.33573472
255	0xbef75689	-0.4830821

bias f4 [6]
0	0x3e47cabb	0.1951093
1	0x3e83e41b	0.25759968
2	0xbdfa7fa5	-0.122313775
3	0xbe8df9cb	-0.2772964
4	0xbee23883	-0.4418374
5	0x3eae2d94	0.34019148

weight f4 [16, 6, 5, 5]
0	0xbde41ec0	-0.111386776
1	0xbcaa34f1	-0.020777198
2	0x3d8c6cf7	0.06856721
3	0x3e2c9946	0.16855344
4	0xbca1cf64	-0.019752212
5	0xbe3fea3b	-0.18741696
6	0xbe5060a9	-0.20349373
7	0xbdad33c3	-0.084571384
8	0x3e3841fd	0.17993923
9	0x3e02715a	0.12738553
10	0xbcae6963	-0.021290487
11	0xbe6690a7	-0.22516118
12	0xbde3568e	-0.11100493
13	0x3d951b5a	0.072806075
14	0x3e3f5032	0.18682936
15	0x3e43d7f1	0.19125344
16	0x3c060187	0.008179075
17	0xbd7d25a1	-0.061803464
18	0x3dc0f525	0.094217576
19	0x3cc2d1b5	0.023781637
20	0x3d37d20d	0.044878054
21	0x3d10c6b5	0.03534575
22	0xbdc5db3c	-0.09660956
23	0xbd05406e	-0.032532148
24	0xbdfa297c	-0.12214944
25	0xbd708ea2	-0.058729775
26	0xbdb48513	-0.088144444
27	0x3d044671	0.03229374
28	0xbb9b41f3	-0.0047380864
29	0x3d89ed2a	0.067346886
30	0x3d2dbc34	0.042415813
31	0x3cb88669	0.02252503
32	0xbcb57c44	-0.022153981
33	0xbd0814d3	-0.033222985
34	0xbc98ba86	-0.018643629
35	0x3c247733	0.010038185
36	0x3cc8f2da	0.024529863
37	0xbd9f920f	-0.0779153
38	0x3d54e8a0	0.05197966
39	0xbc26f0b6	-0.010189226
40	0xbd65df2f	-0.056121048
41	0xbd39eae3	-0.04539002
42	0x3d487d85	0.04894783
43	0x3d5ef76c	0.05443518
44	0xbdaa9304	-0.08328822
45	0x3d8384ca	0.06421812
46	0x3d0390fb	0.032120686
47	0x3ccfcb3e	0.025365468
48	0x3d3cebbd	0.046123255
49	0xbd7a1de6	-0.06106367
50	0xbbabb654	-0.005240241
51	0xbdd02757	-0.101637535
52	0xbe10e05a	-0.14148083
53	0x3da4715d	0.08029435
54	0x3d1d7603	0.038442623
55	0x3db7f13c	0.08981559
56	0xbe2909a1	-0.1650758
57	0xbe971bc2	-0.29513365
58	0xbda13118	-0.07870692
59	0x3e1d58d5	0.15365918
60	0xbd9f1e18	-0.07769412
61	0xbdaf029d	-0.0854542
62	0xbe6603b0	-0.22462344
63	0xbe84527b	-0.25844178
64	0xbd475cb0	-0.048672378
65	0xbe3e0076	-0.18554863
66	0xbdef831b	-0.11694928
67	0xbe7fe294	-0.24988776
68	0xbe93d29f	-0.2887163
69	0xbe6b0b65	-0.22953565
70	0xbd76a08a	-0.060211696
71	0xbe55ca32	-0.20877913
72	0xbe2e2b8d	-0.17008801
73	0xbe2e7a80	-0.17038918
74	0xbd32ea89	-0.0436807
75	0x3e20dda3	0.15709548
76	0x3df64743	0.12025311
77	0x3d8e01be	0.06933926
78	0xbdb1a197	-0.08673399
79	0xbdc9518c	-0.09830007
80	0xbc272b2c	-0.010203164
81	0x3d799209	0.060930286
82	0x3e3b9bce	0.18321154
83	0x3c8af4f3	0.016962504
84	0xbea3bcaa	-0.31979877
85	0xbd953f37	-0.07287448
86	0xbc9ec463	-0.019380754
87	0x3e46e096	0.1942161
88	0x3e12aa7a	0.14322844
89	0xbe0d8234	-0.138192
90	0xbdc879c8	-0.09788853
91	0xbceba296	-0.02876405
92	0x3e44bca2	0.19212583
93	0x3e7eb9b5	0.24875529
94	0xbde65a36	-0.11247675
95	0xbdd52903	-0.10408213
96	0x3d39be56	0.045347534
97	0x3e002aac	0.12516278
98	0x3e2f8d4a	0.17143741
99	0x3ce40631	0.027834984
100	0xbdbc45c2	-0.09192993
101	0x3d8c19e5	0.068408765
102	0x3e892d9e	0.26792616
103	0x3e16c077	0.14721857
104	0xbe65868c	-0.22414607
105	0xbe9a7077	-0.3016393
106	0xbe806b1f	-0.25081727
107	0x3eade8d7	0.33966705
108	0x3ec34bf2	0.3814388
109	0x3d151415	0.036396105
110	0xbe57f0af	-0.21087907
111	0xbf24e4c0	-0.64411545
112	0x3dd74f87	0.105132155
113	0x3f09a040	0.5376015
114	0x3e556a6d	0.2084138
115	0x3e28660e	0.16445181
116	0xbf287eb7	-0.6581835
117	0xbe7769d6	-0.24161467
118	0x3eaf2bac	0.34213006
119	0x3e9987bb	0.29986367
120	0x3e4b8c55	0.19877751
121	0xbf175117	-0.5910811
122	0xbeb1a060	-0.3469267
123	0x3dea873b	0.114515744
124	0x3d9b0d24	0.07570866
125	0x3d0a5161	0.033769015
126	0x3d0a28d3	0.03373034
127	0x3cb44112	0.022003684
128	0xbe0b8332	-0.13624266
129	0x3cefa08e	0.029251363
130	0x3c8b2a0d	0.016987825
131	0x3de42f77	0.11141866
132	0x3e773a9f	0.24143456
133	0x3c491035	0.01227193
134	0xbe233a15	-0.15940125
135	0xbe02b042	-0.1276255
136	0xbe62f0f4	-0.22162229
137	0x3ea1c94f	0.315989
138	0x3e032f1d	0.12810941
139	0xbe8f7b57	-0.28023788
140	0xbdd47146	-0.10373168
141	0xbdfdbdfd	-0.12389753
142	0x3ea6982a	0.32537967
143	0x3e97911f	0.29602906
144	0xbe39b8c2	-0.18136886
145	0x3cd7d7d4	0.026348032
146	0xbe3c8954	-0.18411762
147	0x3e599f75	0.21252234
148	0x3e1593e2	0.14607194
149	0x3cf465ef	0.029833762
150	0x3d780e3c	0.06056045
151	0xbc96f07f	-0.018425224
152	0xbd2ec749	-0.042670522
153	0xbd284403	-0.041080486
154	0xbdba36c1	-0.09092475
155	0xbcd27349	-0.025689738
156	0x3e174246	0.14771375
157	0x3d63d2ef	0.055621084
158	0x3dae567f	0.085125916
159	0x3d01a8d8	0.031655163
160	0x3cbb63cb	0.022874733
161	0x3d8dbe3f	0.06921052
162	0x3e13a6e2	0.1441913
163	0xbc0969c1	-0.00838703
164	0xbdcdf710	-0.10056889
165	0x3cec21e2	0.02882475
166	0xbdb03bcb	-0.086051546
167	0xbe053a3d	-0.13010497
168	0xbbd905b8	-0.006622996
169	0x3d6430f9	0.055710766
170	0xbe611b48	-0.21983063
171	0xbd913a8a	-0.070912436
172	0x3e0f17bc	0.13973898
173	0x3e71ae9a	0.23601761
174	0x3de8de2b	0.113705
175	0x3c812262	0.015763465
176	0x3d0b32a6	0.03398385
177	0x3c26e188	0.010185607
178	0x3d0675ca	0.032827176
179	0xbaa7e0ab	-0.0012808045
180	0xbd4ece36	-0.050489627
181	0xbdacbfc7	-0.08435016
182	0xbd921029	-0.071319886
183	0x3d0243be	0.031802885
184	0xbd222c47	-0.039593007
185	0xbb1f3efb	-0.0024299014
186	0x3cbc2ddc	0.022971086
187	0x3cbe3a02	0.02322102
188	0xbd1d875c	-0.038459167
189	0x3dd339e3	0.103137754
190	0xbd1cbaf2	-0.038264222
191	0x3d8a3d2a	0.06749947
192	0xbd85de93	-0.06536593
193	0xbc98bfba	-0.01864611
194	0x3d8eab79	0.069662996
195	0xbd17d290	-0.037066042
196	0x3d6348ef	0.055489477
197	0xbd685998	-0.05672607
198	0xbd584a45	-0.052805204
199	0xbac507ad	-0.0015032195
200	0xbcb5d1af	-0.022194711
201	0x3cf5c3ef	0.030000655
202	0xbde0e751	-0.1098162
203	0xbd54507e	-0.051834576
204	0xbdb24390	-0.08704293
205	0x3d66dca6	0.05636277
206	0x3e3a63fe	0.18202206
207	0x3da72d81	0.08162976
208	0x3e1a140a	0.15046707
209	0x3e447924	0.19186836
210	0x3e8707b2	0.2637306
211	0x3e95d444	0.29263508
212	0x3e091eed	0.13390703
213	0x3e83d531	0.2574859
214	0x3db6acca	0.08919676
215	0x3e6ada07	0.22934733
216	0x3e90ecbf	0.28305623
217	0x3ec9b06a	0.39392406
218	0x3ee41226	0.44545096
219	0x3eb67148	0.35633302
220	0x3e270993	0.16312246
221	0x3eaa8a23	0.33308515
222	0x3eb2f67a	0.34953672
223	0x3df3780c	0.118881315
224	0x3d4a0efa	0.04933069
225	0x3c60fbcc	0.013731908
226	0xbcf484ff	-0.029848574
227	0xbca69c12	-0.020338092
228	0x3c97da40	0.018536687
229	0x3d770b49	0.060313497
230	0x3d13bfa2	0.036071427
231	0xbdb880d9	-0.09008951
232	0x3d81a771	0.06330765
233	0x3d9d4a9e	0.07680248
234	0xba2db70e	-0.00066267035
235	0x3e0ff4c9	0.14058222
236	0x3e873498	0.26407313
237	0x3ebae553	0.36503085
238	0x3e508101	0.20361711
239	0xbda078de	-0.078355536
240	0x3e89f94c	0.2694801
241	0x3dfa9d01	0.12236977
242	0x3e0256cd	0.12728424
243	0x3b747490	0.0037300922
244	0xbdbb4a2b	-0.09145006
245	0xbdc73a65	-0.09727935
246	0xbe88d245	-0.26722923
247	0xbe1d5ce6	-0.15367469
248	0xbe105db1	-0.1409824
249	0xbc61014a	-0.0137332175
250	0xbd8a208c	-0.06744489
251	0x3bd83fa5	0.006599384
252	0xbdbe5ec6	-0.0929542
253	0x3d9802c9	0.07422406
254	0x3e01076b	0.12600486
255	0xbd126535	-0.03574105

bias f4 [16]
0	0xbe42128b	-0.18952386
1	0xbef61ff9	-0.48071268
2	0x3d1e7388	0.038684398
3	0xbea07d8e	-0.3134579
4	0xbb4bda22	-0.003110536
5	0x3e93b268	0.2884705
6	0x3e23fd53	0.16014604
7	0x3e783c34	0.24241716
8	0x3dafab7c	0.0857763
9	0xbe970f7d	-0.29504004
10	0xbc8abe12	-0.016936336
11	0xbcfa4713	-0.030551469
12	0xbd75d4fc	-0.06001757
13	0xbd614f4c	-0.055007264
14	0x3ebd9a7e	0.3703193
15	0xba752ac2	-0.000935238

weight f4 [120, 16, 5, 5]
0	0xbd825570	-0.06363952
1	0xbd649643	-0.055807363
2	0xbdd9b65c	-0.106304854
3	0xbe002491	-0.12513949
4	0xbd7c218f	-0.06155544
5	0xbca9c298	-0.020722672
6	0x3cddd283	0.027077919
7	0xbde8b6f9	-0.11363024
8	0x3c565c2d	0.0130835
9	0xba6dc6ee	-0.00090704754
10	0x3d445a08	0.047937423
11	0xbd7850f8	-0.060624093
12	0xbd893615	-0.066997685
13	0x3d8f566a	0.06998904
14	0x3cf2bc13	0.029630696
15	0x3dbfe59b	0.09369966
16	0x38e33924	0.00010834847
17	0xbda981fe	-0.08276747
18	0xbc251796	-0.010076424
19	0x3d5ddc8a	0.0541654
20	0xbd711c3b	-0.058864813
21	0x3d92d8e9	0.071702786
22	0x3cfdeac1	0.030995728
23	0xbccdb2e3	-0.025109714
24	0x3c8e01d5	0.017334858
25	0xbd5ccce9	-0.053906355
26	0x3d538f1e	0.05165016
27	0xbd85894d	-0.06520329
28	0x3cbd85f8	0.02313517
29	0x3d0d9381	0.0345645
30	0x3cd710ad	0.026253069
31	0x3c79fc58	0.015257917
32	0x3c10831a	0.00882032
33	0xbd5573c4	-0.052112356
34	0xbd654248	-0.055971414
35	0xbd07f4c3	-0.033192407
36	0xbc58194f	-0.013189628
37	0xbcee6b6b	-0.029103955
38	0x3c8b237b	0.016984692
39	0xbce5af0c	-0.02803757
40	0x3dcf1276	0.10110943
41	0xbc48b8a8	-0.012251057
42	0x3dc18de4	0.094508916
43	0x3d8648ea	0.06556876
44	0xbd87b885	-0.06626991
45	0x3d9feaa3	0.07808425
46	0x3d037025	0.03208937
47	0x3d230a85	0.039804954
48	0x3dba9c36	0.09111826
49	0xbd7b62ae	-0.061373405
50	0x3d35edd6	0.04441627
51	0xbd64a81c	-0.055824384
52	0xbd9411bd	-0.07229946
53	0xbd8c7b5a	-0.06859465
54	0xbcbb7d18	-0.022886798
55	0x3c92c64d	0.017916823
56	0xbd8debf0	-0.06929767
57	0xbdab6e8b	-0.08370694
58	0xbd9b0228	-0.07568771
59	0xbdb63363	-0.0889652
60	0xbc1638ed	-0.009168846
61	0xbda322d9	-0.07965631
62	0xbdb5f1cc	-0.0888401
63	0xbdd4fa75	-0.103993334
64	0xbc6a49ce	-0.014299823
65	0x3d9c7ecb	0.07641371
66	0x3d7dfdd4	0.062009647
67	0x3c9756b8	0.018473968
68	0x3c919a7c	0.01777386
69	0x3d57ee42	0.052717455
70	0x3de727fc	0.11286923
71	0x3df0b7a3	0.11753776
72	0x3d6c39bc	0.057672247
73	0x3db11e9c	0.086484164
74	0x3e0f8f8b	0.14019601
75	0xbd402eab	-0.046919506
76	0xbc1374c1	-0.009000004
77	0xbc9195cd	-0.017771626
78	0xbd00500f	-0.03132635
79	0x3b192333	0.0023366928
80	0x3d57060c	0.052496
81	0xbca509bb	-0.020146241
82	0x3c3fc6a8	0.011705078
83	0x3d90e305	0.070745505
84	0x3d86fa44	0.06590703
85	0x3cc8c402	0.024507526
86	0xbd6dc12b	-0.058045547
87	0xbd1b2ba2	-0.03788341
88	0x3d998f4b	0.07498034
89	0xbd1d2431	-0.038364593
90	0x3cf1b10e	0.029503372
91	0xbc97a9fa	-0.018513668
92	0xbb995da4	-0.0046803523
93	0x3da48042	0.08032276
94	0x3c6f9e29	0.014625111
95	0x3d95801c	0.072998255
96	0x3dc3128f	0.09525024
97	0x3da93375	0.08261768
98	0x3e02b694	0.1276496
99	0x3d60e4fd	0.05490588
100	0xbdb40603	-0.08790209
101	0xbb133957	-0.0022464597
102	0xbcee5ec6	-0.029097926
103	0x3c87cfdf	0.016578613
104	0xbd5dea1c	-0.054178342
105	0x3cf8c287	0.030366195
106	0x3c460255	0.012085517
107	0xbc9b3471	-0.018945904
108	0x3d8ef827	0.06980925
109	0xbc20b97b	-0.009809847
110	0x3d15bc7d	0.03655671
111	0xbdb46519	-0.08808345
112	0xbd6043b6	-0.054752074
113	0x3d9f0838	0.077652395
114	0xbcafddc5	-0.021468053
115	0xbc2a5ff6	-0.010398855
116	0x3cec0fb1	0.028816076
117	0x3bf17bef	0.0073695104
118	0x3c6892f2	0.014195191
119	0xbd66d360	-0.056353927
120	0xbd205e2c	-0.03915231
121	0xbdeff829	-0.11717255
122	0xbdc46c41	-0.0959096
123	0xbdb65a4e	-0.08903943
124	0x3b15eb65	0.0022875902
125	0x3c8090ae	0.015693989
126	0xbdb10231	-0.08642996
127	0xbd86de58	-0.065853775
128	0x3b5b0c80	0.0033424199
129	0xbaadc748	-0.0013258243
130	0x3ce81894	0.028332032
131	0xbc379fa9	-0.0112075
132	0xbcb8602d	-0.022506798
133	0xbd96a927	-0.07356482
134	0x3c91108b	0.017708084
135	0x3d9f916c	0.07791409
136	0x3d1a6d0c	0.03770165
137	0xbd6eba80	-0.05828333
138	0x3cc796d0	0.024363905
139	0x3d2ccd21	0.042187814
140	0x3db1aa6f	0.08675086
141	0x3d8f7c2b	0.07006105
142	0xbd2ddb8c	-0.042445704
143	0x3d8adc01	0.06780244
144	0x3d66cd6e	0.056348257
145	0x3cb4c57b	0.022066822
146	0x3ccb894e	0.024845745
147	0x3c272f7d	0.010204193
148	0xbcebda9a	-0.02879076
149	0xbc8cf112	-0.017204795
150	0x3d2235ed	0.03960221
151	0xbccecfab	-0.025245508
152	0xbcd17a5a	-0.025571037
153	0xbd05fbdf	-0.032710906
154	0x3dadb652	0.084820405
155	0xbc45d7cb	-0.012075375
156	0xbcc913d2	-0.024545584
157	0xbdb30d4e	-0.08742772
158	0xbc9d40eb	-0.019195994
159	0x3c609cbb	0.013709242
160	0x3badbf03	0.0053023114
161	0xbd067e95	-0.03283556
162	0xbd374689	-0.044745002
163	0x3ce3341e	0.027734812
164	0x3c2209cc	0.009890031
165	0xbd95e875	-0.07319728
166	0x3ca7fa15	0.02050499
167	0x3c68954a	0.01419575
168	0x3cf7ca30	0.030247778
169	0x3c81a1f0	0.015824288
170	0x3d9fe44a	0.078072146
171	0x3dd25f97	0.102721386
172	0x3d5979e6	0.053094767
173	0x3d95ac59	0.07308263
174	0x3d803a2f	0.06261098
175	0x3ad7f98f	0.0016477572
176	0xbd37dd88	-0.044889003
177	0x3cba9bb8	0.02277933
178	0x3bcae453	0.006191769
179	0xbd3691dc	-0.044572696
180	0x3ca448c2	0.020054225
181	0x3d65a782	0.05606795
182	0x3d3c7c01	0.046016697
183	0xbc2e3212	-0.010632055
184	0x3d97d959	0.07414503
185	0x3d67225a	0.056429245
186	0xbb8f28cc	-0.004368877
187	0x3d2fe0a1	0.042938832
188	0x3d8a2df0	0.06747043
189	0xbdc88ca5	-0.09792451
190	0xbbeece8e	-0.007287807
191	0xbd2fcbe6	-0.042919062
192	0xbd8bcb63	-0.06825902
193	0xbd4eda9c	-0.05050145
194	0xbd859fe4	-0.06524637
195	0xbd50628f	-0.050875243
196	0x3cc46952	0.023976002
197	0xbbf71b73	-0.007541114
198	0xbcc1f24e	-0.02367511
199	0x3c430ffe	0.011905668
200	0x3cb00f81	0.021491768
201	0x3c9fc021	0.019500794
202	0xbd368938	-0.044564456
203	0x3d042c43	0.032268774
204	0x3d8d6ea8	0.06905872
205	0x3bae27d3	0.005314806
206	0x3ba1ad9f	0.0049340273
207	0xbc5576aa	-0.01302878
208	0x3cd2116e	0.025643077
209	0x3cd74a5f	0.02628058
210	0x3da96074	0.0827035
211	0x3d0bb454	0.03410752
212	0x3d173313	0.036913943
213	0x3d0f468e	0.034979396
214	0xbc938bff	-0.018011091
215	0x3d5897eb	0.052879255
216	0xbd21f5ae	-0.03954094
217	0x3c3f77f0	0.01168631
218	0xbd1c1f78	-0.03811595
219	0xbc0d999d	-0.008642581
220	0x3db3d053	0.08779969
221	0xbd134149	-0.035950933
222	0xbdaa7087	-0.08322244
223	0xbc1045dc	-0.008805718
224	0xbc1058bc	-0.008810218
225	0xbd8ff353	-0.07028832
226	0xbd29c787	-0.04145005
227	0x3cc8b0c8	0.024498358
228	0xbda58300	-0.08081627
229	0xbcc5be27	-0.024138523
230	0xbca6a632	-0.02034292
231	0x3c7b03c4	0.015320722
232	0x3ce69f95	0.028152267
233	0xbda2f725	-0.07957295
234	0xbd0a34d1	-0.033741776
235	0x3ddae96b	0.10689052
236	0x3d76cb55	0.060252506
237	0x3b844e8f	0.004037685
238	0xbd976573	-0.07392397
239	0xba832691	-0.0010006
240	0x3bb62df0	0.0055596754
241	0xbcbb972e	-0.022899237
242	0xbd2fc57b	-0.04291294
243	0xbcdc4303	-0.026887422
244	0xbce7960e	-0.028269794
245	0xbd56e8e1	-0.052468184
246	0xbd59ee5d	-0.053205837
247	0xbd186c0f	-0.037212428
248	0x3d8358cc	0.06413421
249	0xbd3bf89c	-0.04589139
250	0xbc898830	-0.016788572
251	0x3b9e819d	0.0048372285
252	0xbb6cb1b4	-0.0036116662
253	0xbd82d351	-0.06387962
254	0x3d1a5bd6	0.037685238
255	0x3cdade66	0.026717376

bias f4 [120]
0	0x3bcba53a	0.006214765
1	0xbcf5f38c	-0.030023359
2	0x3c96bd4a	0.018400807
3	0xbbefb97b	-0.007315812
4	0x3e386956	0.18008932
5	0x3e53c52b	0.20680682
6	0xbd796e2f	-0.060896095
7	0x3e1475e3	0.14498095
8	0xbd0744ac	-0.033024475
9	0x3d3c7483	0.04600955
10	0x3dcc3472	0.09970941
11	0x3d0c42a7	0.034243252
12	0x3da83db0	0.08214891
13	0x3d3ed54b	0.04659013
14	0xbe0aa42d	-0.1353919
15	0x3d032b8a	0.032023944
16	0xbc2ad3fd	-0.0104265185
17	0x3b5892f5	0.0033046578
18	0x3b817a83	0.003951372
19	0x3bb42eac	0.005498728
20	0x3e1e88dd	0.15481897
21	0xbe159539	-0.14607705
22	0x3dfa3be0	0.122184515
23	0x3be767cb	0.0070619336
24	0xbde9a02f	-0.11407506
25	0xbd720200	-0.05908394
26	0xbdc64ee3	-0.09683015
27	0xbbb24e5c	-0.00544147
28	0xbc932742	-0.017963056
29	0x3dfa2607	0.122142844
30	0xbd31a02a	-0.043365635
31	0xbd1f6c4c	-0.03892164
32	0xbda70f09	-0.081571646
33	0xbe3e75d7	-0.1859964
34	0x3dac69ce	0.08418618
35	0x3d392d48	0.0452092
36	0x3e37ba5e	0.17942187
37	0x3d301029	0.04298416
38	0x3dbbffd3	0.09179654
39	0xbd390dfb	-0.04517935
40	0xbd940b49	-0.07228715
41	0x3d67cb1f	0.056590196
42	0xbe1ed505	-0.15510948
43	0xbd87a3a3	-0.06623008
44	0xbc3fdada	-0.011709893
45	0xbaa7943b	-0.0012785265
46	0x3cad31bb	0.021141877
47	0xbd008e8b	-0.03138594
48	0xbce88dbe	-0.0283879
49	0xbe0078ff	-0.12546156
50	0xbda2dfa5	-0.07952813
51	0x3d08c5da	0.03339181
52	0xbd243734	-0.04009171
53	0x3e1ff151	0.15619399
54	0xbce19bd1	-0.02754012
55	0xbc9fe1ff	-0.019516943
56	0xbcde52d3	-0.027139103
57	0xbd25f6bf	-0.04051852
58	0xbc621177	-0.013798109
59	0xbd33e3ba	-0.04391835
60	0x3d87c237	0.066288404
61	0x3da312d5	0.07962576
62	0x3d387fa3	0.0450436
63	0xbdb5c301	-0.08875085
64	0x3d2be940	0.04197049
65	0x3cc21b3f	0.023694633
66	0xbc882aea	-0.016622026
67	0xbce808a1	-0.028324427
68	0xbd2e4d85	-0.042554397
69	0x3dab7183	0.0837126
70	0x3dd28d00	0.102808
71	0xbd168000	-0.036743164
72	0x3d9ecf97	0.07754438
73	0xbc71a310	-0.01474835
74	0xbdd6bc61	-0.10485149
75	0x3d8b73e2	0.06809212
76	0x3b4c763f	0.003119841
77	0x3d6c45e7	0.05768385
78	0x3d1bf647	0.038076665
79	0x3da73894	0.08165088
80	0xbdad6067	-0.08465653
81	0xbde58f25	-0.11208943
82	0x3d0aed90	0.033917964
83	0xbca47e87	-0.020079864
84	0xbca8bdf4	-0.02059839
85	0x3e162889	0.146639
86	0x3e215964	0.15756756
87	0xbdbaf2f1	-0.09128369
88	0xbdcbb1fc	-0.09946057
89	0xbc28a313	-0.010292786
90	0xbd403066	-0.046921156
91	0x3d37755d	0.04478966
92	0xbcfcb02f	-0.03084573
93	0x3c2c9c7f	0.010535358
94	0xbde62689	-0.11237819
95	0x3cec4e6e	0.028845992
96	0x3e15a683	0.146143
97	0xbd404325	-0.046939034
98	0x3df61814	0.12016311
99	0x3cee17e1	0.02906412
100	0x3e160846	0.14651594
101	0x3c42965b	0.011876668
102	0x3c3b056b	0.011414866
103	0x3d7f5e71	0.062345926
104	0x3bb80657	0.00561599
105	0x3ca6d171	0.020363541
106	0xbcd82ca6	-0.026388478
107	0x3e03f59f	0.12886666
108	0xbd28f371	-0.04124779
109	0xbd2db380	-0.042407513
110	0x3d0f2830	0.034950435
111	0xbd02a567	-0.03189602
112	0x3dd23ebc	0.10265872
113	0x3e052946	0.13004026
114	0xbdf2fec1	-0.11864997
115	0x3c788e72	0.01517068
116	0x3d8cf892	0.068833485
117	0x3e66324c	0.22480124
118	0xbc4a45f9	-0.012345784
119	0x3d490c71	0.04908413

weight f4 [64, 480]
0	0x3dbc305e	0.09188913
1	0x3d434e3c	0.047682032
2	0x3d1a8c24	0.037731305
3	0x3c93b7c9	0.018031972
4	0x3c3ca34e	0.011513544
5	0x3aefb214	0.0018287324
6	0xbc7b02c0	-0.01532048
7	0xbcb12566	-0.021624278
8	0x3cdb374b	0.026759764
9	0xbcd3a49b	-0.025835326
10	0xbdbbef8c	-0.09176549
11	0xbd29aabf	-0.0414226
12	0xbd120ab9	-0.035654757
13	0xbaa76d4a	-0.001277366
14	0xbbc0a891	-0.0058794697
15	0xbcba07e9	-0.02270885
16	0x3cbf3169	0.02333899
17	0xbc314d28	-0.010821618
18	0x3d49cba8	0.049266487
19	0xbd2e05e8	-0.0424861
20	0xbcee8b61	-0.029119195
21	0x3b9c524a	0.004770552
22	0x3d814e74	0.06313792
23	0x3dc50b65	0.09621314
24	0xbd32504f	-0.04353362
25	0xbd3820cd	-0.044953156
26	0x3d2642ac	0.040590927
27	0xbd13f4c1	-0.036122087
28	0xbc0b3c8e	-0.008498324
29	0x3ceb6db9	0.028738843
30	0x3d68a0e0	0.056794047
31	0x3dab9d5c	0.08379623
32	0xbd919d9e	-0.07110141
33	0xbd94a23c	-0.07257506
34	0xbcbb03ea	-0.022829015
35	0x3d05ce8e	0.03266769
36	0xbd1eeaad	-0.038798023
37	0x3d79dfb3	0.06100435
38	0x3ba8b5e9	0.0051486385
39	0xbd2f3170	-0.042771757
40	0xbd0a3ea7	-0.033751156
41	0xbd88ea5d	-0.06685326
42	0x3db1a2ca	0.08673628
43	0x3d6fd541	0.058552984
44	0xbbb8efcf	-0.005643822
45	0xbcec673c	-0.02885782
46	0xbdbfde24	-0.09368542
47	0xbd88eac4	-0.06685403
48	0xbc384842	-0.011247696
49	0xbd128329	-0.035769615
50	0xbd185018	-0.03718576
51	0xbc2d3831	-0.010572479
52	0xbbb1bd21	-0.0054241573
53	0x3dab7fbb	0.08373972
54	0xb9aa8c04	-0.00032529247
55	0xbc2b36d9	-0.010450088
56	0x3d029580	0.031880856
57	0xbdcdd49f	-0.1005032
58	0x3cf80081	0.030273678
59	0xbd05324c	-0.03251867
60	0x3b601228	0.003419051
61	0x3d999097	0.074982814
62	0x3c0d4a3d	0.008623657
63	0x3dbead2f	0.09310376
64	0xbcebfcda	-0.028807092
65	0xbc78b2f9	-0.015179389
66	0x3c0fedfa	0.008784765
67	0xbcace9c3	-0.02110756
68	0x3cf37dce	0.029723074
69	0xbd7a4f89	-0.061111007
70	0xbbf2fc49	-0.0074153286
71	0x3a0a3a2f	0.0005272952
72	0x3d671163	0.056413066
73	0x3d8f3163	0.06991842
74	0xbd35533e	-0.04426884
75	0x3d0a684d	0.033790875
76	0xbd8427b8	-0.06452888
77	0xbc8fb6ff	-0.017543314
78	0xbcb27771	-0.02178547
79	0xbd2a486d	-0.041572977
80	0x3c96988b	0.018383285
81	0x3d4d5c71	0.050136987
82	0xbd68382d	-0.0566942
83	0xbd85a21f	-0.06525063
84	0x3de8a1f4	0.11359015
85	0x3ca80782	0.020511393
86	0xbd5c9153	-0.05384953
87	0xbda62e58	-0.08114308
88	0xbd94acf6	-0.07259552
89	0xbc70ab2d	-0.014689249
90	0xbd2d5082	-0.042313106
91	0xbccc0657	-0.024905367
92	0x3d384b97	0.044993963
93	0x3d44489a	0.0479208
94	0x3c3a74b5	0.011380364
95	0x3c70ca6a	0.014696697
96	0xbd1f1724	-0.038840428
97	0x3a7fe676	0.00097618194
98	0xbda1dd8b	-0.07903584
99	0x3d29b516	0.041432463
100	0x3a51b748	0.00080000283
101	0x3d98ed77	0.07467168
102	0xbc94d5d8	-0.018168375
103	0x3d5bfe87	0.053709533
104	0xbc8104f3	-0.01574943
105	0xbcdbd8d3	-0.026836788
106	0x3c8a6dbe	0.016898032
107	0xbd15a731	-0.0365364
108	0x3ce25d71	0.027632447
109	0x3c2f8468	0.01071272
110	0xbc3e06b5	-0.011598279
111	0xbd087107	-0.033310916
112	0x3dadd5ae	0.08488022
113	0x3c9885f3	0.01861856
114	0xbd00033b	-0.03125308
115	0xbd5c1ed5	-0.05374034
116	0xbda069a7	-0.078326516
117	0x3d924056	0.07141177
118	0xbd92536a	-0.07144816
119	0xbdd10cdd	-0.102075316
120	0xbd2d7e9f	-0.042357083
121	0xbb84eb2a	-0.004056354
122	0xbcc072b9	-0.023492204
123	0xbc56c375	-0.013108124
124	0xbc7a591b	-0.015280033
125	0xbd369e1e	-0.044584386
126	0xbd60075e	-0.054694526
127	0xbd73bc9d	-0.059506048
128	0x3da9a6c7	0.082837634
129	0xbcaaacfc	-0.020834439
130	0xbc84cb5d	-0.016210252
131	0x3c34b7ca	0.011030147
132	0xbc56aa93	-0.0131021915
133	0xbd06df5b	-0.032927852
134	0x3ca71ae5	0.020398566
135	0x3d844a6c	0.06459507
136	0x3cd26b02	0.02568579
137	0x3d4d7097	0.050156202
138	0xbc665d43	-0.014060321
139	0xbc827b40	-0.01592791
140	0x3d32bfa1	0.043639783
141	0xbc264d35	-0.0101502435
142	0xbb5f082f	-0.0034031977
143	0x3be6adf4	0.00703978
144	0xbd81be8c	-0.06335172
145	0x3dab11f9	0.083530374
146	0xbd946ba4	-0.07247093
147	0x3c6df466	0.014523601
148	0x3c31341b	0.010815646
149	0xbdaccc28	-0.08437377
150	0x3c97cbe7	0.018529845
151	0xbdd972c2	-0.106175914
152	0x3cae5fdc	0.021285944
153	0xbd8a740e	-0.06760417
154	0x3d74d788	0.05977586
155	0xbd070c81	-0.03297091
156	0x38431914	4.651498e-05
157	0xbce828d7	-0.028339786
158	0xbd2a660e	-0.041601233
159	0x3ca03507	0.019556535
160	0xbc25b066	-0.010112857
161	0x3d0d9135	0.03456231
162	0xbb578960	-0.0032888278
163	0x3ccbf4ea	0.024897058
164	0x3d0ae71a	0.033911802
165	0x3c92ce52	0.017920647
166	0x3c4f84d0	0.012665942
167	0xbd3cc499	-0.046085928
168	0x3acb99e2	0.0015533532
169	0x3d7b969b	0.061422925
170	0x3ca87e68	0.020568088
171	0x3d811f8c	0.06304845
172	0xba0052cc	-0.000489515
173	0x3bf691fd	0.0075247274
174	0x3d27b487	0.04094365
175	0xbd110b33	-0.03541107
176	0xbd4e9cf1	-0.05044264
177	0x3cb4a4da	0.022051264
178	0x3d2dbb02	0.042414673
179	0xbc2a7cdf	-0.010405748
180	0x3cc01273	0.023446297
181	0x3b8a6133	0.004223013
182	0x3d3f27a3	0.04666866
183	0x3d0ae743	0.033911955
184	0xbcf408dc	-0.02978938
185	0xbd5aa308	-0.053378135
186	0xbcd12fd5	-0.025535503
187	0xbd20efeb	-0.039291304
188	0xbbc1d6d4	-0.005915502
189	0xbcea5eac	-0.028609596
190	0xbc8d42a6	-0.017243695
191	0xbd2f0495	-0.04272898
192	0xbc740c31	-0.014895485
193	0x3c4b1359	0.01239475
194	0x3d044bec	0.032298967
195	0x3c1c7a04	0.009550575
196	0x3c0a38ad	0.008436364
197	0x3bf58ba8	0.007493455
198	0xbce01f2c	-0.027358614
199	0x3da25598	0.07926482
200	0x3c86c94a	0.016453404
201	0x3b5c3fae	0.0033607292
202	0xbcfe336f	-0.031030385
203	0xbd94cdd3	-0.0726582
204	0x3c5ee3e0	0.013604134
205	0xbc2aef44	-0.010433022
206	0x3bfb24a8	0.007664282
207	0x3dbc2930	0.091875434
208	0x3d8e1a76	0.06938641
209	0xbbdde936	-0.0067721857
210	0x3d139043	0.03602625
211	0xbc84b09d	-0.016197497
212	0x3d89f20c	0.0673562
213	0x3d8d8cdd	0.06911633
214	0xbc781f63	-0.015144202
215	0x3d9be283	0.07611563
216	0x3c86915d	0.016426736
217	0xbb1d5c7f	-0.002401143
218	0xbcf9fbb1	-0.030515524
219	0x3c882d91	0.01662329
220	0xbd72663d	-0.059179533
221	0x3c6f5579	0.014607781
222	0xbcfcfc26	-0.030881952
223	0xbd6c2332	-0.057650752
224	0x3d2d137a	0.042254902
225	0xbd7f2a91	-0.062296454
226	0x3cc40b2b	0.023931107
227	0xbc93bbfd	-0.018033976
228	0x3dab37b0	0.08360231
229	0x3cd9730c	0.026544116
230	0x3d11e451	0.03561813
231	0x3d27c148	0.04095581
232	0x3d8173d5	0.06320921
233	0xbc12e08c	-0.008964669
234	0x3cdd6690	0.027026445
235	0xbca06cfe	-0.019583222
236	0xbccaf50e	-0.024775054
237	0xba8502cf	-0.0010147932
238	0x3d238894	0.039925173
239	0x3c15533c	0.009114083
240	0xbd1c6bea	-0.038188852
241	0x3c45757d	0.012051937
242	0xbb4da534	-0.0031378986
243	0xbc54c768	-0.012986995
244	0xbbe51e14	-0.006992111
245	0x3b8c4875	0.0042810985
246	0xbcfc0608	-0.030764595
247	0x3bea825b	0.007156653
248	0xbc47f3e9	-0.012204149
249	0x3cc548c0	0.024082541
250	0xbd3fe71a	-0.046851255
251	0x3cb5d899	0.022198008
252	0xbd402268	-0.046907812
253	0x3c6679b5	0.014067103
254	0xbd4d5fae	-0.050140075
255	0xbc236904	-0.009973768

bias f4 [64]
0	0x3dfd20e7	0.12359791
1	0xbc11f604	-0.008908752
2	0x3d29b3c8	0.04143122
3	0xbdb00479	-0.08594603
4	0x3e0b1e04	0.13585669
5	0xbc5fbd9c	-0.013656046
6	0x3da7dfd7	0.08196991
7	0xbccc4024	-0.024932928
8	0x3e0840dc	0.13305992
9	0xbe2eaf50	-0.17059064
10	0xbd5800f4	-0.052735284
11	0x3e1a1444	0.15046793
12	0x3cdcf842	0.026973847
13	0x3d6f03af	0.058353122
14	0x3e32caeb	0.1746022
15	0xbac3e916	-0.0014946784
16	0xbe3394c3	-0.17537217
17	0xbd114da8	-0.03547445
18	0x3e33965e	0.1753783
19	0xbdb15779	-0.08659262
20	0x3e138495	0.14406045
21	0xbd251199	-0.040299986
22	0xbd998065	-0.074951924
23	0x3e01c84a	0.1267406
24	0xbd2c5cd7	-0.042080726
25	0x3e295189	0.1653501
26	0xbd4a2223	-0.04934896
27	0x3d4b8ff8	0.049697846
28	0xbd127339	-0.035754416
29	0xbdd8ca32	-0.10585441
30	0xbda66a02	-0.08125688
31	0xbd6b769b	-0.057486158
32	0x3d0643f9	0.032779668
33	0xbb25e3e9	-0.0025312847
34	0xbc40a029	-0.011756935
35	0x3c816386	0.015794527
36	0xbd950219	-0.07275791
37	0x3e18f316	0.1493648
38	0x3d3aaec3	0.045576822
39	0x3e096a88	0.13419545
40	0x3e76569c	0.24056476
41	0xbbd923e1	-0.0066265916
42	0x3e0b9117	0.13629566
43	0x3e8139df	0.25239465
44	0x3c0f7410	0.008755699
45	0x3dbceb60	0.09224582
46	0x3e096005	0.13415535
47	0xbd81737c	-0.06320855
48	0xbdedde4e	-0.11614667
49	0x3dddfe23	0.10839488
50	0xbdd979d2	-0.106189385
51	0xbc8051ec	-0.015664063
52	0xbd6bb9f1	-0.057550374
53	0x3dceba57	0.10094135
54	0xbd4a9345	-0.049456853
55	0x3e579a86	0.2105504
56	0x3c7f8c6e	0.015597446
57	0x3cd478c4	0.025936492
58	0x3e267ac2	0.16257766
59	0x3e8cb3a5	0.27480808
60	0x3bc17936	0.005904342
61	0xbd41aeb5	-0.047285754
62	0x3cfdad27	0.030966355
63	0xbd90284e	-0.070389375

weight f4 [10, 64]
0	0xbe3f53c1	-0.18684293
1	0x3ddc31bf	0.10751676
2	0x3dcadf50	0.09905875
3	0xbe8428f7	-0.25812504
4	0xbe13e767	-0.14443742
5	0xbe85c3a0	-0.26125813
6	0xbd2a6a99	-0.041605566
7	0x3e3afca1	0.18260433
8	0xbe7e888c	-0.24856776
9	0x3ea129a7	0.3147709
10	0x3d271b7b	0.04079769
11	0xbe29cf6f	-0.16583036
12	0x3d10c451	0.035343472
13	0x3db27486	0.08713631
14	0xbe5dbc3b	-0.21653835
15	0xbed87e87	-0.42284033
16	0x3e6813f0	0.22663856
17	0x3d173175	0.0369124
18	0xbe2fad1e	-0.17155883
19	0xbe70943a	-0.23494044
20	0x3eabd438	0.33560348
21	0x3e2f7f47	0.17138396
22	0xbe9d3e17	-0.30711433
23	0x3e75082d	0.239289
24	0xbe3e85b5	-0.18605693
25	0x3e36463d	0.17800231
26	0xbc8d7957	-0.017269773
27	0x3d0643e3	0.032779586
28	0x3e046edb	0.12932913
29	0x3e32c1fe	0.17456815
30	0x3e6c95b0	0.23103976
31	0x3e1205e8	0.14260066
32	0xbeaf395e	-0.34223455
33	0x3e9548c4	0.29157078
34	0x3de316b7	0.11088317
35	0xbe998397	-0.29983208
36	0x3e57c7c1	0.21072294
37	0x3e4c6069	0.19958653
38	0x3d1d997c	0.038476452
39	0x3e37d385	0.17951782
40	0xbe764cda	-0.24052754
41	0xbdb22de4	-0.08700159
42	0x3eb56681	0.35429767
43	0x3db6e0a1	0.08929563
44	0x3db1ce13	0.08681884
45	0x3eb03e2a	0.34422427
46	0x3dbaf7f6	0.09129326
47	0x3e7f4743	0.24929528
48	0x3d8b0219	0.067875095
49	0xbe58a57d	-0.21156879
50	0xbcb5a918	-0.022175357
51	0xb9faa866	-0.00047809182
52	0xbe197b9d	-0.14988561
53	0x3de488f0	0.11158931
54	0xbc34eebf	-0.01104325
55	0x3e2f5fd4	0.171264
56	0xbd1cdeb0	-0.03829831
57	0xbdfc0385	-0.12305359
58	0x3d7a332b	0.061083954
59	0xbe80ab2a	-0.25130588
60	0x3e498db4	0.19682962
61	0x3ecd67d5	0.4011828
62	0xbea9d3de	-0.33169454
63	0x3e334853	0.17508058
64	0xbeba1c8c	-0.36349905
65	0xbd8530a8	-0.06503421
66	0x3dd6fe99	0.104977794
67	0x3e3e0888	0.18557942
68	0xbe7836a9	-0.24239601
69	0x3df998ee	0.12187372
70	0xbddd7a5f	-0.10814356
71	0x3e0d3224	0.13788658
72	0xbe180b54	-0.14848071
73	0xbe97d533	-0.29654846
74	0x3e2c7874	0.16842824
75	0x3ec7e36b	0.39040694
76	0x3db2f953	0.08738961
77	0xba99cb85	-0.0011733627
78	0x3e9c88ce	0.30573124
79	0xbedf7d66	-0.4365036
80	0x3e95ae31	0.2923446
81	0xbda80675	-0.082043566
82	0xbe2c516b	-0.16827933
83	0x3f0b8314	0.54496884
84	0xbdc81edd	-0.09771512
85	0x3ed1b0f1	0.40955308
86	0xbdd97de6	-0.10619716
87	0xbe32af77	-0.17449747
88	0xbdc8aadc	-0.09798214
89	0xbd004676	-0.031317197
90	0x3e94515e	0.28968328
91	0xbc1782a5	-0.009247457
92	0x3e6ce276	0.23133263
93	0x3d7d88b6	0.061897956
94	0xbae4701d	-0.0017428432
95	0xbddd3fdf	-0.10803198
96	0xbdef439a	-0.11682816
97	0x3d31730c	0.043322608
98	0xbdb94d32	-0.09047927
99	0x3da6001a	0.08105488
100	0x3e992f0d	0.2991871
101	0xbb3713c8	-0.0027935375
102	0xbd88643e	-0.06659745
103	0xbe6a1294	-0.2285865
104	0xbef4a3af	-0.4778113
105	0x3e93af4c	0.28844678
106	0xbd8385d5	-0.06422011
107	0xbed3e158	-0.4138286
108	0xbceb22b1	-0.028703066
109	0xbe3f4d1d	-0.1868176
110	0xbeb69b93	-0.3566557
111	0x3e7506a3	0.23928313
112	0x3ed47afc	0.4150008
113	0xbe4202ad	-0.18946333
114	0xbea5f15d	-0.32410708
115	0xbcaa76d7	-0.02080862
116	0x3e2f0cc5	0.17094715
117	0x3cdb9219	0.026803063
118	0x3dc7ad93	0.097499035
119	0xbdc69186	-0.09695725
120	0xbed6c10b	-0.41944155
121	0xbe050631	-0.12990643
122	0x3dfe6502	0.124216095
123	0x3e2e97a6	0.17050037
124	0xbdbd03ec	-0.09229264
125	0xbd5f238b	-0.054477256
126	0x3eb04068	0.34424138
127	0xbcd1caf5	-0.025609473
128	0x3e9842d7	0.29738495
129	0xbe3e220f	-0.1856768
130	0x3d182bb4	0.037151054
131	0xbec09e5a	-0.37620813
132	0xbdd1072f	-0.10206448
133	0x3e482776	0.19546303
134	0x3ce4632a	0.027879316
135	0xbe1e107e	-0.15435979
136	0xbd9c654e	-0.0763651
137	0xbdcd27d1	-0.1001736
138	0xbebe4520	-0.37162113
139	0xbc6e8110	-0.014557138
140	0x3df0d3e6	0.117591664
141	0x3e87e21e	0.265397
142	0xbeaa4d9f	-0.33262345
143	0x3ce376c8	0.0277666
144	0x3cebcea1	0.028785052
145	0x3ecf99d5	0.40547052
146	0x3ed2c5be	0.4116649
147	0xbda2c84b	-0.07948359
148	0xbe4cf148	-0.20013916
149	0x3e29c839	0.16580285
150	0x3d5ef16d	0.05442946
151	0x3e28a9bc	0.16470999
152	0x3e8771bf	0.2645397
153	0x3ee93c45	0.45553795
154	0xbe492ab7	-0.196452
155	0x3d79b621	0.060964707
156	0xbe562ffc	-0.20916742
157	0xbc8cf424	-0.01720626
158	0xbd711d8b	-0.058866065
159	0xbe666523	-0.22499518
160	0xbe93172d	-0.2872862
161	0xbedb2075	-0.427982
162	0x3e0ddaa1	0.13852932
163	0xbdb5331c	-0.08847639
164	0x3e5721ed	0.21009035
165	0x3eb75826	0.3580944
166	0x3e3426ff	0.17593001
167	0x3ea24ef4	0.3170086
168	0x3e7be263	0.24598078
169	0xbe2fde7b	-0.17174713
170	0x3d37e487	0.044895675
171	0x3ebaba8e	0.36470455
172	0x3e8b122e	0.27162308
173	0x3c29892d	0.010347647
174	0xbdf8f226	-0.12155561
175	0x3e6984de	0.22804591
176	0xbe9daccc	-0.30795896
177	0x3e235479	0.15950193
178	0xbd8328e6	-0.06404285
179	0xbea1ff79	-0.31640223
180	0x3e9f0126	0.31055564
181	0xbe81f73a	-0.2538393
182	0xbef3ca02	-0.47615057
183	0x3e287e3e	0.16454408
184	0x3d5d5c87	0.05404332
185	0x3e2edfaa	0.17077509
186	0x3e8a4eac	0.27013147
187	0x3e00a396	0.12562403
188	0x3d47317b	0.048631173
189	0x3e16a276	0.14710411
190	0x3cac4dca	0.021033186
191	0x3df0485f	0.11732554
192	0x3e6e8e6a	0.23296514
193	0xbd8c1ac7	-0.06841045
194	0x3e2b6c83	0.16740613
195	0xbd03380b	-0.03203587
196	0x3d858e89	0.06521327
197	0xbdb7e14a	-0.08978517
198	0xbed1ede4	-0.4100181
199	0xbe0cf361	-0.13764717
200	0x3ec57bd2	0.3857103
201	0xbd7cd58f	-0.061727103
202	0x3e820dfe	0.254013
203	0x3d5d6711	0.05405337
204	0xbd7f49e6	-0.062326334
205	0x3d5f8467	0.054569628
206	0xbc89b2e2	-0.01680893
207	0x3e6c347f	0.230669
208	0x3e77babb	0.24192326
209	0x3e560e77	0.20903955
210	0x3cd8b402	0.026453022
211	0xbea0a9ea	-0.31379634
212	0xbd983f1d	-0.07433913
213	0x3d1308e8	0.035897166
214	0xbd2504c8	-0.040287763
215	0x3d0c0570	0.034184873
216	0x3cb2334a	0.021752972
217	0xbea2fecb	-0.31835017
218	0x3e180f80	0.14849663
219	0xbea908cb	-0.3301452
220	0xbe7dab9d	-0.24772497
221	0x3c28be14	0.010299224
222	0xbec88b9d	-0.39169016
223	0xbe83a6e0	-0.25713253
224	0x3dfecb71	0.12441147
225	0x3dbd3b2a	0.092398
226	0xbe3fb257	-0.18720375
227	0x3dcfd84c	0.10148677
228	0x3d2b7233	0.041856956
229	0xbe73731f	-0.23774384
230	0x3e1e8d9c	0.15483707
231	0xbe8fab19	-0.28060225
232	0x3d9c44ba	0.07630296
233	0x3e1162cc	0.14197844
234	0xbdb548ba	-0.08851762
235	0x3e4a85cc	0.19777602
236	0xbe071cc4	-0.13194567
237	0x3de344ca	0.11097105
238	0x3e638dad	0.22222014
239	0x3e20e10f	0.15710853
240	0x3e414f86	0.18877992
241	0x3de1a16f	0.11017119
242	0xbe9bf5db	-0.3046101
243	0x3e34d95a	0.17661038
244	0xbd4989d9	-0.049203727
245	0xbe2851a8	-0.164374
246	0x3e1935d5	0.14961942
247	0x3df72d56	0.12069194
248	0x3da5a5dd	0.080882765
249	0xbe043e1b	-0.12914316
250	0xbd4551c2	-0.048173673
251	0x3da777f9	0.0817718
252	0x3e22d4c1	0.15901472
253	0xbe0f7911	-0.14011027
254	0x3e6bf7e1	0.23043777
255	0xbeb10cf2	-0.3458019

bias f4 [10]
0	0xbe07ed20	-0.1327405
1	0xbd87029b	-0.06592294
2	0x3e677f42	0.22607139
3	0x3e2fa07d	0.17151065
4	0x3ec5532b	0.38540015
5	0xbe820d20	-0.2540064
6	0x3d56cac8	0.05243948
7	0xbe213b2b	-0.15745227
8	0x3e739838	0.23788536
9	0xbe86846d	-0.26272908
